mfcc_model.pth (torch, 32870 bytes, 5 tensors)

conv1.weight f4 [32, 13, 3]
-0.027741918 -0.14914858 0.07534021 -0.06730667 -0.053580772 -0.13850819 0.001601161 0.11042308
0.06828099 0.0056492034 0.11090968 0.09135556 0.15743656 -0.111194335 0.16141063 0.14352511
0.016622223 -0.14104615 -0.03050216 0.06683033 -0.032298397 -0.1351136 -0.048101645 -0.023215456
0.15996547 -0.052103456 0.11453721 -0.042932548 -0.06646682 -0.093638144 -0.04327135 0.14837512
-0.10358672 0.12701853 -0.11359067 0.14565109 0.10670151 -0.13208663 0.048366316 0.06013051
-0.032726303 -0.1398611 -0.10047469 0.102199 0.101951994 -0.092700675 0.11180341 -0.015974348
0.13611743 -0.01851751 0.045037143 0.018122518 0.124351665 -0.12082202 -0.15789862 -0.039165094
-0.062118698 0.039532706 0.09646155 -0.015255967 -0.00039734333 0.09234031 -0.11228302 0.02432827
-0.1574991 0.015045624 -0.11953786 -0.0954618 0.10304623 0.01811055 -0.13401067 0.11421216
0.020044038 -0.11910051 0.13302995 0.03878002 -0.045187403 -0.14901432 -0.02021513 0.02044954
-0.05469785 -0.0128255505 0.12615864 -0.09952779 0.0746158 -0.10629079 -0.14584002 -0.103276834
-0.05059916 0.06840185 0.073523924 0.10957729 0.09384461 0.049008217 -0.1732825 0.055076458
-0.030692339 0.12771569 -0.013412208 0.00247055 -0.13619587 0.07667203 0.08509204 0.036725238
0.062354952 0.03785159 0.0057623866 0.07972953 0.13564785 -0.11715601 0.019178864 0.012327906
0.14235143 -0.03901404 -0.10010049 0.04586614 0.14652888 -0.08247734 0.05944468 0.036006093
-0.12349279 0.0890748 0.017469956 -0.18150578 0.016759593 0.04826799 0.014314347 0.087044515
-0.006905711 -0.064448036 -0.06405514 0.058365546 0.03145372 0.09737449 -0.043687478 -0.030691959
0.062270697 -0.1413712 0.16924226 0.0881322 0.13042594 0.051649023 -0.03799908 -0.010649798
-0.09909467 0.05851443 0.06385674 0.083860464 -0.11308717 0.12231748 0.11127396 -0.038535647
-0.07367105 0.12572186 -0.0015687292 0.016634954 0.15485643 0.10994167 -0.025593841 0.016730703
-0.012968903 0.11608056 0.1692003 -0.021423135 0.15677083 -0.14277679 0.025026001 0.013317599
0.066575736 -0.1505119 -0.13387407 0.12705493 -0.04028808 -0.017468115 0.14355719 -0.1395313
-0.12291531 0.1187662 0.09330933 0.1691313 0.10705203 0.1297047 -0.039110214 -0.07158902
0.06959893 -0.04044797 -0.10066962 -0.09025123 0.014835308 0.06784877 0.062626265 0.07470427
0.12919457 0.013225681 -0.13147722 -0.09912441 -0.098228484 0.10445472 -0.011301725 0.14391112
-0.09617651 -0.0023370076 -0.035053182 -0.14733624 0.048098072 -0.12792128 0.12757981 0.110969536
-0.067949176 0.034185037 0.09312563 -0.028212879 0.09480905 0.124581896 -0.025522087 -0.01174029
-0.089793436 -0.08174326 -0.15736426 -0.079167664 0.040358875 -0.13122234 -0.036885813 0.021995937
0.05863396 0.056474138 0.06502266 0.086598635 -0.13296697 0.09731115 0.033528026 0.1234293
-0.17337738 -0.058333643 -0.12934062 -0.07292472 -0.03596378 -0.14839056 0.13141038 0.0022847098
0.11902769 -0.10743811 -0.0317692 -0.002390745 -0.13114387 -0.11484577 -0.038041573 0.1480338
0.114266045 0.029124018 -0.13211153 -0.09520277 -0.06304405 0.10976139 -0.02363234 0.094664484
00000000: 0543 e3bc 68ba 18be f84b 9a3d 14d8 89bd
00000010: 8377 5bbd 17d5 0dbe 0cde d13a 7f25 e23d
00000020: e7d6 8b3d f41c b93b 9d24 e33d a018 bb3d
00000030: 0d37 213e dbb9 e3bd d448 253e 3ff8 123e
00000040: 542b 883c 676e 10be aadf f9bc 57de 883d
00000050: 534b 04bd 385b 0abe 3b06 45bd 572e bebc
00000060: fdcd 233e 6f6a 55bd 7c92 ea3d 0ada 2fbd
00000070: c21f 88bd 5bc5 bfbd 4d3d 31bd a6ef 173e
00000080: 4625 d4bd 2511 023e 3aa2 e8bd 8f25 153e
00000090: 5286 da3d b841 07be c21b 463d 694b 763d
000000a0: 040c 06bd c037 0fbe adc5 cdbd b64d d13d
000000b0: 35cc d03d dad9 bdbd 30f9 e43d a3dc 82bc
000000c0: 5e62 0b3e 08b2 97bc de78 383d ad75 943c
000000d0: 16ac fe3d 8971 f7bd 2db0 21be 946b 20bd
000000e0: 2d70 7ebd 0ced 213d a28d c53d 2af4 79bc
000000f0: 8552 d0b9 eb1c bd3d a4f4 e5bd 154c c73c
00000100: 7247 21be ec81 763c 44d0 f4bd 7a81 c3bd
00000110: e709 d33d 935c 943c 183a 09be 11e8 e93d
00000120: 6533 a43c f8ea f3bd 0139 083e ccd7 1e3d
00000130: 6d16 39bd 3697 18be 339a a5bc cb85 a73c
00000140: da0a 60bd 4222 52bc bb2f 013e 3ad5 cbbd
00000150: 2bd0 983d fcae d9bd 1657 15be ce82 d3bd
00000160: 1141 4fbd 4516 8c3d b693 963d 0f6a e03d
00000170: 9a31 c03d d7bc 483d f870 31be da97 613d
00000180: 806e fbbc e7c7 023e e1be 5bbc f3e8 213b
00000190: ee76 0bbe 3a06 9d3d bc44 ae3d 346d 163d
000001a0: e867 7f3d 450a 1b3d 67d2 bc3b 3c49 a33d
000001b0: 45e7 0a3e 7def efbd fe1c 9d3c fcfa 493c
000001c0: 93c4 113e 30cd 1fbd 7c01 cdbd 22de 3b3d
000001d0: ab0b 163e e1e9 a8bd 447c 733d 207b 133d
000001e0: cae9 fcbd d96c b63d 271d 8f3c a7dc 39be
000001f0: 6a4b 893c a8b4 453d b986 6a3c 6544 b23d
00000200: 4d49 e2bb 55fd 83bd 572f 83bd b610 6f3d
00000210: 9ed5 003d 476c c73d a4f1 32bd b46d fbbc
00000220: 8f0f 7f3d 9dc3 10be d84d 2d3e a87e b43d
00000230: 618e 053e ed8d 533d eca4 1bbd 7e7c 2ebc
00000240: 25f2 cabd d4ac 6f3d 53c7 823d 09bf ab3d
00000250: 3f9a e7bd 9681 fa3d 9ae3 e33d 8ed7 1dbd
00000260: d9e0 96bd 3bbd 003e d19d cdba 0746 883c
00000270: af92 1e3e 1929 e13d 2daa d1bc d40e 893c
00000280: 867b 54bc a5bb ed3d d842 2d3e 927f afbc
00000290: 8888 203e 1434 12be 5403 cd3c 0f32 5a3c
000002a0: dc58 883d cb1f 1abe 4916 09be b01a 023e
000002b0: 1d05 25bd 4b19 8fbc a800 133e 4be1 0ebe
000002c0: 06bb fbbd b23b f33d f618 bf3d c130 2d3e
000002d0: 183e db3d 4fd1 043e 0832 20bd 449d 92bd
000002e0: e289 8e3d c5ac 25bd e02b cebd a3d5 b8bd
000002f0: cb0f 733c 4cf4 8a3d 3342 803d 8dfe 983d
00000300: 954b 043e 87b0 583c f7a1 06be bd01 cbbd
00000310: 042c c9bd 5bec d53d df2a 39bc 705d 133e
00000320: 31f8 c4bd 7b28 19bb ed93 0fbd 50df 16be
00000330: 7c02 453d ccfd 02be 48a4 023e ff43 e33d
00000340: f028 8bbd 9c05 0c3d a6b8 be3d b21e e7bc
00000350: 3f2b c23d cb24 ff3d b213 d1bc 585a 40bc
00000360: 9fe5 b7bd 0369 a7bd 1924 21be a822 a2bd
00000370: 594f 253d 265f 06be 9415 17bd d330 b43c
00000380: 2a2a 703d 6d51 673d 9a2a 853d a05a b13d
00000390: 7e28 08be 114b c73d af54 093d 80c8 fc3d
000003a0: d789 31be 42ef 6ebd de71 04be 8e59 95bd
000003b0: c24e 13bd b2f3 17be 7190 063e 12bb 153b
000003c0: cac4 f33d 8308 dcbd 6c20 02bd 0cae 1cbb
000003d0: 944a 06be 4234 ebbd 7bd1 1bbd 2c96 173e
000003e0: 5104 ea3d 7e95 ee3c 3f48 07be abf9 c2bd
000003f0: 3d1d 81bd 94ca e03d 9c98 c1bc 74df c13d

conv1.bias f4 [32]
0.056486927 -0.070402294 0.024269065 0.19410288 -0.119094744 -0.045655966 0.16360298 -0.023576165
-0.14380927 -0.050843373 -0.14850156 -0.08244192 -0.1263852 -0.1409073 -0.0096788425 -0.10014161
-0.0112543795 -0.0049333624 0.064608194 -0.117138565 0.32500845 -0.076643296 0.1661093 0.11236937
0.33727202 -0.021328768 -0.03064228 0.2698031 -0.17128938 -0.10102125 0.31936887 -0.13413523
00000000: d65e 673d 142f 90bd ebcf c63c e8c2 463e
00000010: f2e7 f3bd c001 3bbd 8a87 273e cd22 c1bc
00000020: bd42 13be 2441 50bd cb10 18be 4fd7 a8bd
00000030: 1f6b 01be 014a 10be 0294 1ebc 0b17 cdbd
00000040: 4a64 38bc 0ba8 a1bb 4d51 843d 58e6 efbd
00000050: 8267 a63e 29f7 9cbd 8e18 2a3e ea21 e63d
00000060: ebae ac3e abb9 aebc 8505 fbbc a223 8a3e
00000070: 7c66 2fbe 3be4 cebd 5184 a33e bf5a 09be

conv2.weight f4 [64, 32, 3]
-0.057859574 0.021159083 -0.06607875 0.052977476 -0.04255925 -0.029143393 0.085945725 0.0431974
-0.07554123 -0.040834554 -0.01994322 0.05235797 0.058314662 -0.0015982868 0.0065283272 0.06096402
-0.050694294 -0.09835097 -0.004717889 -0.05947077 0.08953459 -0.08909759 0.06806074 -0.08956919
0.012908974 0.02794429 -0.06926557 -0.04304994 -0.0919456 0.0041385964 -0.08145899 0.04833831
0.08594998 0.07745064 0.015193929 0.0018627048 0.08225671 -0.0018449747 -0.06126894 -0.0029145775
-0.056270868 0.030751903 0.089643836 -0.006799257 0.05903314 0.016676135 -0.0073374393 0.010903696
0.06025145 -0.05203558 0.045335375 -0.07317238 -0.07553017 -0.0836465 -0.016313454 0.02579244
-0.1139643 -0.057057485 0.070031874 -0.0640283 -0.004791236 -0.017371416 -0.082497686 0.025174115
-0.09365327 0.04378479 0.01891658 0.086569965 0.07354347 -0.098660894 0.067136295 -0.073252045
0.09360089 0.009650799 0.073063605 -0.07094596 0.07659669 0.07065584 -0.03427633 0.042870436
-0.054715525 -0.03717063 0.031185742 0.055596672 -0.0071853353 -0.082052164 0.068792 0.0859869
-0.0032785418 -0.0906888 0.023629354 -0.01251994 0.044746187 0.06581093 -0.07869038 -0.07930107
-0.012442443 -0.03630324 0.061470963 -0.048803583 -0.0063934033 -0.05957904 0.08843819 0.012119001
0.019232735 0.02169286 -0.11201418 -0.013800363 0.01371777 -0.03145024 -0.0984747 -0.04483174
-0.10265667 -0.10544959 -0.092256315 0.054526743 0.027917262 0.095631644 -0.03189226 0.030937355
-0.032671332 0.0394934 0.034303743 7.7193225e-05 0.04900734 0.012120141 -0.07341357 0.07453523
-0.05194722 -0.029681096 -0.09727277 -0.08882973 0.05734353 -0.0955357 -0.036628723 -0.004523664
-0.04270868 -0.1008359 0.0049261353 0.00089491566 -0.04725275 -0.10030485 0.03808631 0.07835463
0.021571385 0.02713793 -0.060502958 0.034128457 -0.010567168 0.089435756 -0.02839988 -0.05019709
-0.0432581 -0.039242405 -0.09336902 0.018225325 0.05364054 0.08259081 0.054910477 -0.059656527
-0.05581447 -0.078606464 -0.10525732 -0.08664503 -0.105537325 -0.09918622 0.08162342 -0.048482444
0.030308342 -0.00088098214 -0.03325636 -0.052329715 -0.063508324 0.04062459 -0.10324242 -0.010671754
-0.07649491 0.04741577 -0.050830197 0.063842446 -0.011853407 -0.10327203 0.047485735 0.04994939
0.08135519 0.0805348 -0.084343866 -0.054623708 0.04570307 -0.022332687 0.07339461 -0.11105412
-0.04748066 -0.0009617603 -0.0016995504 0.0881665 -0.03155404 0.061798602 -0.03881684 -0.00054110365
-0.048635855 0.031701263 -0.061120596 0.0260513 -0.06897875 0.08960781 0.028385473 0.0030548282
0.013639058 -0.013529195 0.093860455 -0.03777595 0.038407966 0.017996458 0.07610319 -0.0126539795
0.058878608 -0.09795424 -0.018483514 0.081676915 -0.09182545 0.0039659925 -0.0751476 -0.0043256776
-0.037592642 0.025360862 -0.00043312527 0.072588086 -0.096494645 0.05192678 0.061939348 0.087192886
0.076083325 -0.09061389 0.09845003 0.09043695 0.052101035 0.036750104 -0.056400735 0.036624923
-0.09947757 -0.087802276 -0.02168486 0.04463578 0.09113802 -0.0017675408 0.04645981 -0.027475314
-0.08205037 0.057665605 0.035268217 -0.027004343 0.082685284 -0.05142648 -0.0265825 -0.08175123
00000000: 29fe 6cbd d055 ad3c 4c54 87bd e9fe 583d
00000010: 9c52 2ebd 20be eebc 5004 b03d c2ef 303d
00000020: 5cb5 9abd 2242 27bd f75f a3bc 5075 563d
00000030: 5bdb 6e3d 9b7d d1ba 94eb d53b 69b5 793d
00000040: d2a4 4fbd 3c6c c9bd 8598 9abb 9f97 73bd
00000050: e95d b73d cc78 b6bd 6e63 8b3d 0d70 b7bd
00000060: 2980 533c 6ceb e43c 1bdb 8dbd 2255 30bd
00000070: fa4d bcbd 109d 873b f9d3 a6bd 64fe 453d
00000080: 8b06 b03d 719e 9e3d f5ef 783c 0026 f43a
00000090: 3576 a83d 14d3 f1ba 24f5 7abd 7f02 3fbb
000000a0: 487c 66bd 6aeb fb3c 3097 b73d 4dcc debb
000000b0: bccc 713d 649c 883c e76e f0bb 6aa5 323c
000000c0: 39ca 763d 4323 55bd 96b1 393d 67db 95bd
000000d0: 90af 9abd db4e abbd cba3 85bc ab4a d33c
000000e0: 1d66 e9bd 1cb5 69bd df6c 8f3d 4521 83bd
000000f0: cdff 9cbb 804e 8ebc 8cf4 a8bd f239 ce3c
00000100: 49cd bfbd ae57 333d f2f6 9a3c 984b b13d
00000110: f59d 963d b90e cabd c17e 893d 2b05 96bd
00000120: d3b1 bf3d 631e 1e3c 5fa2 953d 1e4c 91bd
00000130: bade 9c3d 02b4 903d 5665 0cbd e998 2f3d
00000140: 631d 60bd 3b40 18bd 3e79 ff3c 56b9 633d
00000150: f672 ebbb f70a a8bd d2e2 8c3d e619 b03d
00000160: cedc 56bb 0dbb b9bd 5992 c13c 6f20 4dbc
00000170: c747 373d e2c7 863d 6c28 a1bd 9968 a2bd
00000180: 63db 4bbc b5b2 14bd fac8 7b3d 44e6 47bd
00000190: c17f d1bb 2709 74bd 151f b53d c68e 463c
000001a0: f88d 9d3c 3ab5 b13c b167 e5bd eb1a 62bc
000001b0: 7fc0 603c f8d1 00bd 1aad c9bd 7da1 37bd
000001c0: a93d d2bd f4f5 d7bd e1f0 bcbd 6f57 5f3d
000001d0: beb2 e43c 86da c33d 75a1 02bd 5670 fd3c
000001e0: 60d2 05bd d5c3 213d 1582 0c3d cce2 a138
000001f0: ecbb 483d 8e93 463c db59 96bd eda5 983d
00000200: 9cc6 54bd c525 f3bc f236 c7bd 5dec b5bd
00000210: 0de1 6a3d 39a8 c3bd 0008 16bd 3e3b 94bb
00000220: 4cef 2ebd 0d83 cebd 6b6b a13b c698 6a3a
00000230: 198c 41bd a16c cdbd 6400 1c3d 6478 a03d
00000240: 79b6 b03c 5d50 de3c f3d1 77bd 48ca 0b3d
00000250: ea21 2dbc 182a b73d dda6 e8bc 779b 4dbd
00000260: 682f 31bd a5bc 20bd 4238 bfbd 474d 953c
00000270: 2fb6 5b3d 5f25 a93d cfe9 603d 675a 74bd
00000280: b79d 64bd 6dfc a0bd 2691 d7bd f372 b1bd
00000290: f423 d8bd 2522 cbbd 2e2a a73d 8795 46bd
000002a0: 3349 f83c b6f1 66ba d237 08bd af57 56bd
000002b0: a710 82bd f865 263d c370 d3bd 95d8 2ebc
000002c0: 5da9 9cbd 0a37 423d 5333 50bd d4bf 823d
000002d0: cb34 42bc 4980 d3bd 6780 423d bb97 4c3d
000002e0: 8d9d a63d 6eef a43d 7abc acbd 1cbd 5fbd
000002f0: 2433 3b3d 0af3 b6bc ea4f 963d 5870 e3bd
00000300: 157b 42bd a41e 7cba 73c3 deba a390 b43d
00000310: cf3e 01bd 8820 7d3d 68fe 1ebd dad8 0dba
00000320: 6436 47bd 2fd9 013d 9759 7abd 8969 d53c
00000330: bb44 8dbd 4d84 b73d a788 e83c 8333 483b
00000340: 5b76 5f3c 8fa9 5dbc e939 c03d f4ba 1abd
00000350: ac51 1d3d 4f6d 933c fddb 9b3d a352 4fbc
00000360: b22a 713d 3c9c c8bd bd6a 97bc 3a46 a73d
00000370: fb0e bcbd 28f5 813b fce6 99bd 6abe 8dbb
00000380: befa 19bd 95c1 cf3c 1715 e3b9 10a9 943d
00000390: fc9e c5bd 2db1 543d 1db4 7d3d 2f92 b23d
000003a0: 93d1 9b3d c693 b9bd 2ba0 c93d 0237 b93d
000003b0: e567 553d 4787 163d 7504 67bd 0404 163d
000003c0: e5ba cbbd aed1 b3bd 73a4 b1bc 02d4 363d
000003d0: 92a6 ba3d d4ac e7ba a44c 3e3d e913 e1bc
000003e0: 060a a8bd c532 6c3d 6875 103d 3638 ddbc
000003f0: e756 a93d 93a4 52bd 8bc3 d9bc 306d a7bd

conv2.bias f4 [64]
-0.07121267 0.015459754 -0.095159635 0.09946854 -0.028717808 -0.018755188 0.108559676 -0.06385339
-0.038834475 0.0062744226 -0.10738687 0.05335818 0.02290538 -0.13022316 -0.039659742 -0.0402675
0.09528491 -0.04600054 -0.022753708 0.022263063 -0.072933465 0.019473476 -0.030167745 0.16933559
0.08481006 0.110549726 0.22712179 -0.029067148 0.16880415 -0.096480794 -0.05607049 -0.094582304
-0.090645686 -0.068832636 0.1676658 -0.079305016 -0.107294336 -0.06927246 -0.043746404 0.06351572
-0.049922645 -0.06802656 0.013997055 -0.024968969 0.0128444815 0.053362083 0.29982692 0.15079053
-0.022931356 0.058755074 -0.10683603 -0.018194225 0.059531756 0.22746003 0.025248585 0.05032097
0.0007186328 -0.060816515 -0.09764395 -0.04307818 -0.02707402 0.036101583 -0.0017908856 -0.057349563
00000000: f3d7 91bd e84a 7d3c 0ee3 c2bd 29b6 cb3d
00000010: 9c41 ebbc 7ba4 99bc 8954 de3d 91c5 82bd
00000020: e610 1fbd ac99 cd3b a6ed dbbd 1b8e 5a3d
00000030: 10a4 bb3c 3859 05be 4172 22bd 89ef 24bd
00000040: bc24 c33d 106b 3cbd fc65 babc 0761 b63c
00000050: 245e 95bd d786 9f3c 5922 f7bc 4f66 2d3e
00000060: e6b0 ad3d e567 e23d 9d92 683e 3a1e eebc
00000070: ffda 2c3e b997 c5bd 2caa 65bd 5eb4 c1bd
00000080: 72a4 b9bd 20f8 8cbd 95b0 2b3e ab6a a2bd
00000090: 22bd dbbd b8de 8dbd 6e2f 33bd 8814 823d
000000a0: b07b 4cbd 8251 8bbd e753 653c b98b ccbc
000000b0: a971 523c 3392 5a3d ea82 993e d568 1a3e
000000c0: 8ada bbbc 29a9 703d d9cc dabd 0e0c 95bc
000000d0: 92d7 733d 48eb 683e 1fd6 ce3c 5d1d 4e3d
000000e0: a162 3c3a bd1a 79bd 8df9 c7bd bf72 30bd
000000f0: 56ca ddbc 41df 133d 26bc eaba 60e7 6abd

fc.weight f4 [1, 64]
-0.06680935 -0.013103807 -0.06593094 0.07829919 0.034095492 0.098940134 0.07278418 -0.069451876
-0.090233944 0.11521012 -0.0036879967 0.020470824 -0.09766558 -0.033161722 0.04849903 -0.07087416
-0.027636338 0.11588883 -0.021617003 0.019171923 0.111713976 0.09149858 -0.04893924 0.19864595
0.08998616 0.122741096 0.1080976 -0.062342446 0.10667895 0.086296715 0.035462283 -0.06432157
0.06932842 0.017399268 0.17239757 -0.11416894 -0.06756977 -0.05380843 0.1184802 -0.10672621
0.08154268 -0.09643326 0.043648962 -0.009135529 -0.06514785 0.0149958115 0.1640443 0.120127104
0.09545704 -0.10068099 -0.001918331 -0.07298722 0.10749154 0.19335839 0.11184651 -0.07707022
0.07990938 -0.08411448 -0.06188652 0.027475301 -0.016564062 -0.09898436 -0.06624204 0.03494425
00000000: 57d3 88bd 5ab1 56bc cd06 87bd 535b a03d
00000010: b7a7 0b3d 20a1 ca3d df0f 953d c93c 8ebd
00000020: 93cc b8bd 49f3 eb3d 51b2 71bb 6eb2 a73c
00000030: e404 c8bd 96d4 07bd eba6 463d 7926 91bd
00000040: 9a65 e2bc 1f57 ed3d 2416 b1bc 700e 9d3c
00000050: 4cca e43d 9c63 bb3d 8374 48bd d869 4b3e
00000060: aa4a b83d af5f fb3d 4662 dd3d cb5a 7fbd
00000070: 7e7a da3d 55bc b03d e640 113d 07bb 83bd
00000080: 0ffc 8d3d e988 8e3c fd88 303e 68d1 e9bd
00000090: 0562 8abd 3a66 5cbd bfa5 f23d 4593 dabd
000000a0: d9ff a63d cd7e c5bd 41c9 323d 30ad 15bc
000000b0: 3c6c 85bd feb0 753c 3bfb 273e 3305 f63d
000000c0: fb7e c33d d631 cebd 8270 fbba 537a 95bd
000000d0: 8624 dc3d beff 453e c80f e53d fed6 9dbd
000000e0: 87a7 a33d 3644 acbd b87c 7dbd e213 e13c
000000f0: 5bb1 87bc 50b8 cabd e8a9 87bd b421 0f3d
