test_models/speech_model.pth (torch, 145660 bytes, 7 tensors)

conv1.weight f4 [64, 13, 3]
000000 68 74 2c 3e 87 76 1b 3e 3e b2 34 3e ed 9a 03 be
       0.1684128 0.15181933 0.17646119 -0.12852068
000010 9c 20 c4 bd 72 bf 04 3d 6e 02 59 be 6d e5 89 bd
       -0.09576532 0.03240914 -0.21192333 -0.067332126
000020 10 5f 52 be 62 34 80 3d 13 99 c2 3d 6e 5c ca bc
       -0.20544076 0.06259991 0.09501853 -0.024702277
000030 96 fa 3b 3c a8 6a 82 be 5d ee 97 be 42 53 ab bd
       0.011473319 -0.25471997 -0.29674044 -0.083654895
000040 d4 f3 a6 bd 5f ad 15 3e 88 29 4a 3e fd a6 53 3e
       -0.08151975 0.14616917 0.19742405 0.2066917
000050 b7 25 3f 3e e8 bc 07 3e fd 1f 9a 3e 54 33 85 3e
       0.18666731 0.13255656 0.3010253 0.26015723
000060 92 79 4f bf 64 7f f8 be 28 68 e1 be f9 3b e2 3c
       -0.81044877 -0.4853469 -0.44024777 0.027616488
000070 dc 9b 40 3d 4e c0 03 3e b0 ba 16 3e 01 32 4c bd
       0.04702364 0.12866327 0.14719653 -0.049852375
000080 39 5f 0b 3d eb 80 0e 3e e3 41 54 3e 88 8a e7 3d
       0.03402636 0.13916366 0.20728259 0.113057196
000090 0f 8a 88 3f 62 52 83 3f 1a c8 7d 3f 89 96 a2 3e
       1.0667132 1.0259516 0.99133456 0.31755474
0000a0 af ba 63 3e 17 c2 91 3e ad 5e 4b bc e4 36 5f be
       0.22239183 0.2846839 -0.012412709 -0.21798283
0000b0 6c 8f ae 3d 9a 8f 33 3e 12 f4 2b 3e 43 43 81 3d
       0.08523449 0.17535248 0.16792324 0.06311657
0000c0 2a 99 c7 3d e8 75 93 bd 4c 71 4a bd 19 2e 0a 3e
       0.097460106 -0.07200223 -0.049424455 0.13494147
0000d0 f7 7c cb 3d bd 61 fa bc 0c dd de 3c 42 40 0d bd
       0.099359445 -0.030564183 0.027205013 -0.03448511
0000e0 ec 4d 95 bd 98 f4 07 be 54 4b 66 bd 03 14 18 3d
       -0.07290253 -0.13276899 -0.056224182 0.03712846
0000f0 ea 02 ef bc dc d3 bf bd 9e 2c 65 be 0f 6d 18 3e
       -0.029176194 -0.09366581 -0.22380301 0.14885353
000100 30 72 02 3e 11 3f c0 bc 97 ca f5 3e 60 00 cd 3e
       0.12738872 -0.023467572 0.48006126 0.4003935
000110 29 10 8a 3e 86 ca 01 3f c2 39 18 3f 31 ee 0c 3f
       0.26965454 0.5069965 0.5946313 0.5505095
000120 ac 78 7c 3e 61 95 2d 3e 28 d8 e3 3e fa 1e 42 3e
       0.24655408 0.16951515 0.44500852 0.18957129
000130 b5 81 a8 3e c9 97 02 3f 6e d6 85 3e dc 0a 4f 3e
       0.3291146 0.51012856 0.2614016 0.20218986
000140 41 5e 08 3d de ff 5a be e4 02 29 be 9f 3b 6c be
       0.033293013 -0.21386668 -0.16505009 -0.23069619
000150 8d 5d 65 3d 4b 77 17 bd a7 1e 84 3d a8 8d 0a be
       0.05599742 -0.036979 0.06451159 -0.135306
000160 dc 8e e5 bd b9 33 b7 bd f7 e0 e2 bd bb 54 c8 bd
       -0.11208889 -0.08945412 -0.11078065 -0.09781786
000170 81 a6 ed 3c 35 b6 32 3f ec 76 22 3f e2 24 27 3f
       0.02901006 0.69809276 0.6346271 0.65290654
000180 14 1a 0a 3f 59 5d c4 3e 05 97 0d 3f c1 3e a2 be
       0.5394604 0.3835247 0.5530856 -0.31688502
000190 ec e6 7b be 20 22 4f be bb 60 f7 3e 6c 4e 72 3e
       -0.24599808 -0.20227861 0.48315987 0.23662728
0001a0 a1 7c 88 bd 1d 5c a2 be ea 22 1b be 8d cf 10 be
       -0.06664396 -0.31710902 -0.15150037 -0.14141674
0001b0 1a e3 03 be 8a 13 d0 bd 1a 56 72 be 9a 8d f5 3e
       -0.12879601 -0.10159977 -0.23665658 0.47959596
0001c0 c7 e1 2a 3f a9 54 24 3f 80 1c 8f be 0a a0 5b be
       0.6675076 0.6419168 -0.2795143 -0.21447769
0001d0 46 66 5c be fc 80 08 3e 5b 0a 23 3e 2c 80 d3 3c
       -0.21523389 0.13330454 0.15921919 0.025817953
0001e0 01 68 b5 bd 3a e5 62 be 86 6b 88 bd 37 02 34 3e
       -0.08857728 -0.22157755 -0.066611335 0.1757897
0001f0 b0 1b 44 3c ae 59 09 3e b1 e8 9d be 86 a3 5d 3c
       0.011969492 0.13413116 -0.30841592 0.013527757
000200 33 cd 8c be 2d 31 9f 3d cb 28 12 3e 2f ab 92 3e
       -0.27500305 0.077730514 0.14273374 0.28646228
000210 b9 a6 81 be 5a f3 e6 be 86 4b d6 be 52 5a 60 be
       -0.25322512 -0.45107538 -0.41854495 -0.21909454
000220 91 e1 37 be e4 f5 c0 bd 0e 4a 0c 3f 57 fc 68 3e
       -0.1795714 -0.094219 0.548005 0.2275251
000230 87 71 d9 3e 55 f8 d8 3e 9b b5 ac 3d 33 f3 b6 be
       0.42469427 0.42376962 0.08433076 -0.3573242
000240 26 e3 12 bf dd 68 ea be 35 75 1c bf d0 84 b0 bd
       -0.5737785 -0.4578313 -0.61116344 -0.08619082
000250 fd 94 cb bd 8e b0 28 be f1 1b 0a be f0 9e 4b be
       -0.09940527 -0.164736 -0.13487221 -0.19884849
000260 f8 8f 48 be ca 7d 30 3f 82 5f 20 3f 9b 75 3b 3f
       -0.1958617 0.6894194 0.62645733 0.73226327
000270 49 fa d6 3e 27 d3 24 3e 52 ba 2b 3e 5e bc a3 be
       0.41987827 0.16096173 0.16770294 -0.3197965
000280 d0 2e de be 5d a0 65 be 31 79 11 3e 20 af 47 3c
       -0.4339509 -0.22424455 0.14206387 0.012187749
000290 0f 19 15 3e 2d 16 58 be 23 f8 aa bb d0 26 07 3e
       0.1456034 -0.2110221 -0.0052175685 0.131984
0002a0 d0 3e 7d be 0d 3b a5 be 5b b3 b2 be 2f b0 dd 3e
       -0.24730992 -0.32271615 -0.34902462 0.4329848
0002b0 eb eb e9 3e 3c 37 15 3f 97 d2 01 bf 2a dc b4 be
       0.45687804 0.58287406 -0.5071196 -0.35324222
0002c0 6e fe 05 bf b6 03 88 3e e2 e0 44 3e 03 f4 e4 3b
       -0.52341354 0.2656533 0.19226411 0.0069870963
0002d0 3a 03 bd bd 72 fe 44 be 0a 67 8c bd a6 0f b1 3c
       -0.09229131 -0.19237688 -0.06855591 0.021613907
0002e0 a4 db 90 bd 37 06 2e 3e 07 e9 dd be f6 8f 25 bf
       -0.07073143 0.16994558 -0.43341848 -0.6467279
0002f0 80 f9 fc be c0 c4 85 bc 71 a3 d0 bc 82 6e 8b 3d
       -0.49409103 -0.01632917 -0.02546856 0.06808187
000300 03 ed 81 be f0 6b 69 be a2 16 5d be 53 b2 2d 3d
       -0.25376138 -0.22795081 -0.21590665 0.04240639
000310 bf 87 a7 3d ed 37 b3 bc 23 25 3f 3e 2c c9 9b 3b
       0.081801884 -0.021877253 0.1866651 0.004754206
000320 d2 6d 8e 3d 39 6f b3 3d cd a0 9f 3e 50 0a bd 3e
       0.0695454 0.087614484 0.3117737 0.3692193
000330 1e 70 86 3e 72 5e b1 3d 03 97 b7 bc ad c3 cf 3d
       0.26257414 0.08660592 -0.022410875 0.10144744
000340 51 3a 3d bd bc fe f6 bb c4 bc ce 3d 0b 8f ac 3e
       -0.046198193 -0.007537691 0.10094598 0.33702883
000350 98 9f b9 3e 60 b0 a0 be 29 d6 f5 be 45 48 df be
       0.36254573 -0.31384563 -0.48014954 -0.43609825
000360 a7 64 5c bd a4 66 48 3c d9 92 ad 3d 82 1a 9f be
       -0.053806927 0.012231503 0.084752746 -0.3107491
000370 04 e3 d4 bc 45 82 20 3e a7 09 04 be 24 7b 79 be
       -0.025987156 0.15674694 -0.12894307 -0.2436338
000380 c3 e8 68 3c bb b4 06 bf ea 24 e2 be 6a bc 36 be
       0.014215651 -0.5261952 -0.44168788 -0.17845312
000390 4e 86 52 bf f8 8e 5c bf 00 4e 3c bf c1 d6 04 bf
       -0.8223618 -0.86155653 -0.7355652 -0.5189019
0003a0 2b 6e 0f bf 60 b3 0a bf a3 ca 6c 3d 0c 05 68 bd
       -0.5602748 -0.54179955 0.057810437 -0.056645438
0003b0 97 5e 45 bd d0 7e 5b be 96 6d 20 be 85 14 06 bd
       -0.04818591 -0.21435094 -0.15666804 -0.032734413
0003c0 9d 91 53 be 1b 83 5d bd dd 7e a7 bd 6c ce b7 3e
       -0.20661016 -0.05408011 -0.08178494 0.35899675
0003d0 b7 92 65 3e b1 49 54 3e 56 4d a8 be c4 99 45 be
       0.22419249 0.20731236 -0.32871503 -0.19296938
0003e0 3b 71 69 be f1 16 3d 3f 8a 77 50 3f 9b 0e 33 3f
       -0.227971 0.7386313 0.814324 0.6994416
0003f0 37 c4 a5 bd e2 94 9f be db f5 70 be 15 04 3a 3c
       -0.08094066 -0.31168276 -0.23531286 0.011353512

conv1.bias f4 [64]
000000 83 55 93 be 67 10 4f 3f a0 93 55 3f 16 55 44 3f
       -0.28776178 0.80884403 0.8342838 0.7669233
000010 00 9d 9b bc 67 cd b0 be 37 1b 40 be fc 3e 58 be
       -0.018995762 -0.3453171 -0.18760382 -0.21117777
000020 60 e1 59 3f c2 d0 6e bd 51 2c 28 3f 79 d2 49 3f
       0.8510952 -0.058304556 0.6569262 0.7883678
000030 ee d0 3a 3f 37 5c 0c be b9 26 10 3f 2b 6f 9c be
       0.7297505 -0.13707052 0.56309086 -0.30553564
000040 b7 4a 0d be 4e 27 c3 3e 4c 5f 21 bd 79 25 3d 3f
       -0.13798033 0.38115925 -0.039397523 0.73885304
000050 63 5b a2 bc 4f 56 8d bc c2 88 61 3d 9e 36 79 be
       -0.019818967 -0.01725307 0.055062063 -0.24337241
000060 c2 03 d9 3e 15 ce 34 3f 38 db 0b 3e 61 1c 54 be
       0.4238568 0.70626956 0.13657844 -0.2071395
000070 d3 f3 18 3f 73 83 ec bc af 0f cb bd 09 1f 7f 3d
       0.59747046 -0.028871274 -0.09915101 0.062285457
000080 33 e8 40 be 7f a1 af 3e e3 98 17 3f 9e b2 55 be
       -0.18838577 0.343029 0.5921766 -0.20868918
000090 9d 67 5b 3f aa 54 d5 bd a9 d6 51 3f fc 06 f9 be
       0.85704976 -0.10416539 0.8196817 -0.4863814
0000a0 14 cd 11 3f 7f 1c 0f be 7a 00 a7 3d b4 2f 26 3f
       0.5695355 -0.13975714 0.08154388 0.6491654
0000b0 5e be 80 bd 85 0e 08 3f 77 1e 00 be f5 73 8f be
       -0.0628631 0.53147155 -0.12511621 -0.28018156
0000c0 ff 63 19 be 21 02 12 be c2 2d 85 b9 eb 97 8d be
       -0.14979552 -0.14258625 -0.0002540183 -0.27654967
0000d0 c0 e6 4a 3f 86 33 80 3d cd d8 ab bc e7 0e 61 bd
       0.79258347 0.06259827 -0.020977402 -0.054945853
0000e0 d1 07 0f bd 9c 0b 4b 3e 9b 4f 00 3e b8 e5 2f bd
       -0.034919564 0.19828647 0.12530367 -0.042943686
0000f0 27 28 23 bc 29 54 45 3f b4 8e 95 be 24 07 a5 bb
       -0.0099583035 0.77081543 -0.29210436 -0.0050362516

conv2.weight f4 [128, 64, 3]
000000 87 15 77 3e b0 e1 a3 3e 42 bb a3 3e a7 af 35 3e
       0.24129306 0.32008123 0.31978804 0.17742787
000010 71 8e 74 3e 9b b2 a4 3e 3b 75 d1 3e 85 ad 94 3e
       0.23882462 0.32167515 0.40909752 0.29038635
000020 9b ea ca 3e 50 b1 50 bc 60 77 ec bd 95 c0 0b bb
       0.39632115 -0.012737587 -0.115462065 -0.0021324505
000030 ef fa d7 3e 83 bf 25 3e 6a cc ec 3d af 15 c8 3e
       0.42183635 0.16186337 0.115624264 0.39079043
000040 10 f4 01 3e e3 9f 29 be ce f2 63 3d 40 8e ed bc
       0.12690759 -0.16564898 0.05565148 -0.028998494
000050 67 40 04 be db 78 08 bf 9e 54 c6 be 5d 4a 06 bf
       -0.12915193 -0.5330941 -0.38736433 -0.5245722
000060 63 03 7b be b9 41 3d be fc f7 53 bd 58 1f 3d be
       -0.2451301 -0.18482102 -0.05175017 -0.18468988
000070 bb 2d 02 bf 4f 4b 6c be a5 72 c4 be b4 09 eb bc
       -0.5085103 -0.23075603 -0.38368717 -0.02869115
000080 e5 a4 f0 be 39 e7 75 3d 46 58 3b 3f c6 39 a9 be
       -0.47000805 0.060034964 0.7318157 -0.3305189
000090 0d 3b c6 be ea d6 95 be 46 7d 15 be c3 c3 33 3d
       -0.38716927 -0.2926553 -0.1459857 0.043887865
0000a0 ff 8a 6c bc eb 96 05 be a1 ba 9d 3e fc 0d 8f 3e
       -0.014437436 -0.13045852 0.3080645 0.27940357
0000b0 76 c4 74 3e 7c 1c a4 bc 4f 19 75 be c0 63 cc be
       0.23903069 -0.020033114 -0.23935436 -0.39919853
0000c0 7f e6 ab 3e c6 c7 97 3e ae 97 46 3e c9 c4 cd bd
       0.33574292 0.29644603 0.19393799 -0.100472994
0000d0 71 77 b7 be c0 eb b3 be 94 66 46 be bf 7e 6d be
       -0.35833314 -0.351408 -0.19375068 -0.23192881
0000e0 01 03 3f be 18 55 82 3e c5 4f 98 3d 33 ac 40 3e
       -0.1865349 0.25455546 0.0743709 0.18815689
0000f0 63 6f 27 3f 6b 87 1f 3f 95 7b 3f 3f 59 22 b5 bb
       0.6540434 0.62316006 0.74797946 -0.005527776
000100 ff 49 6a be 50 55 22 bf cf a4 23 be 1c 81 4e 3d
       -0.2287979 -0.63411427 -0.15980838 0.050416097
000110 b5 d7 66 be 06 bf 01 3e 6d 1a c3 3e 52 d1 18 3e
       -0.22543223 0.12670526 0.381061 0.149236
000120 c2 d2 77 3e 6f a6 3c 3e 91 2d 01 3d 29 3b 2f 3f
       0.24201491 0.18422864 0.031537596 0.68449646
000130 83 ee 39 3f 43 66 37 3f d9 4c 85 3e 65 cb 91 3e
       0.72629565 0.71640414 0.26035193 0.2847549
000140 a8 30 37 3e f6 16 00 3b 8f 51 f0 be 1d ba 5b bf
       0.17889655 0.0019544936 -0.46937224 -0.8583086
000150 f6 79 d9 3d 63 6c fa bc 5c 50 0a be bb 8c 19 be
       0.10618965 -0.030569261 -0.13507217 -0.1499509
000160 25 87 14 3d fe 67 6a bd 11 67 37 3d d4 38 3e 3e
       0.036261696 -0.05722808 0.044776026 0.18576366
000170 48 70 35 3e 97 7a 67 bd f5 18 88 3e 3e 42 d8 be
       0.17718613 -0.056513395 0.2658154 -0.4223804
000180 49 3c 46 3e 16 33 08 3e 69 2c 3f 3d 49 6c 9d bd
       0.19358934 0.13300738 0.046673212 -0.076866694
000190 9c e4 51 3d b6 60 82 be 97 bf c1 be 0a de d0 3e
       0.05124341 -0.2546441 -0.37841484 0.40794402
0001a0 44 59 40 bf 2b 6b 7d bf 5c 33 99 bf bf 03 f0 be
       -0.7513621 -0.9899165 -1.1968799 -0.46877858
0001b0 21 47 bb be 58 7a c8 be 47 b1 4d bf e5 7b c8 3d
       -0.36577705 -0.3915584 -0.8034863 0.09789256
0001c0 e0 66 28 bd 41 a2 3c bf 66 ed bc bd 2b e1 f1 bd
       -0.041113734 -0.7368508 -0.09224968 -0.118105255
0001d0 df 3e b7 be 64 40 55 be 4f 48 68 be 72 b3 51 3d
       -0.35790154 -0.20825344 -0.22683834 0.051196523
0001e0 97 dd 94 bd d7 72 4d be c1 08 80 be 4f 95 10 3c
       -0.072688274 -0.20063339 -0.2500668 0.00882466
0001f0 3a a7 bc bd 3c 2a ed be b8 74 06 3e 26 7d 2a 3d
       -0.092115834 -0.46321285 0.13130462 0.041623257
000200 8f 30 23 bd 26 c4 b8 3e ef c5 cb 3e d4 2e b7 3e
       -0.03984123 0.3608715 0.3979945 0.35777915
000210 f8 61 59 be b1 e4 d0 3d 55 3a 1d bf 8f b0 ca bd
       -0.21228778 0.101998694 -0.6141713 -0.09896957
000220 ae cf c0 3e e5 52 ee be 87 b6 fc be 3c 2d a2 be
       0.37658447 -0.46547619 -0.49358007 -0.31675136
000230 00 a0 2e be fd af 51 bf c0 a7 bf be fd 3f 72 bd
       -0.17053223 -0.8190916 -0.3743267 -0.059143055
000240 a8 3b 19 be d4 22 85 3e 0a fe 12 be 46 c4 5d 3e
       -0.14964163 0.26003134 -0.1435472 0.21656904
000250 b9 b6 cc 3c c7 06 2b 3e 0d 16 82 3d 66 19 10 3e
       0.024989473 0.16701804 0.06351862 0.14072189
000260 cc 36 1f 3d 89 12 5e bc 87 45 a9 3c 5f 1d 04 3d
       0.038870618 -0.013554224 0.020663036 0.032254573
000270 0a 4c 6f bd 2b 72 27 bd 43 3a ea be 3b 98 fa bd
       -0.058422126 -0.040880363 -0.45747575 -0.12236067
000280 7e 87 4f be e3 dc 84 be 27 a4 c3 be b2 ca c8 be
       -0.2026653 -0.25949773 -0.38211176 -0.39217144
000290 1f 75 31 bf eb 28 77 3d f8 aa 1b 3f a2 3b f9 bd
       -0.6931934 0.060341757 0.6080775 -0.12169577
0002a0 fe 99 0b 3d 79 de 43 3e 19 cc 49 3e e5 ff 42 bf
       0.034082405 0.19127835 0.19706763 -0.76171714
0002b0 32 93 c7 3d d2 db 68 bf cf c4 c3 be 60 a5 92 be
       0.09744872 -0.9096042 -0.3823609 -0.28641796
0002c0 a7 c4 4c bd 62 d7 e5 3c 9e b7 1d 3b dc ea 7f bd
       -0.04999223 0.028056804 0.0024065743 -0.06247984
0002d0 2f a1 33 bd e6 8b 9b 3e d0 b6 2f be 5e e8 0a be
       -0.04385489 0.30380172 -0.17159581 -0.13565204
0002e0 2a 43 96 bd bf 1c bc 3d 8d 18 4d 3d 93 de 2c bd
       -0.07337029 0.091851704 0.05007224 -0.04220445
0002f0 02 28 80 bc 87 ca ff bc b9 8f 8a be 15 1f 16 bf
       -0.015644077 -0.031224502 -0.27062777 -0.5864118
000300 0b ce f3 be 57 ec b2 be f6 03 af be e3 92 b6 3e
       -0.47618136 -0.34945938 -0.3418271 0.3565894
000310 fa cc b6 3e b0 e6 82 3e a0 f5 8c 3e 9c 83 67 3e
       0.3570326 0.25566626 0.27531147 0.22608799
000320 d3 d5 98 3e 01 d8 7e 3e be b2 c0 3e 4d a4 9b 3e
       0.29850635 0.24887086 0.3763637 0.3039879
000330 e6 7e 88 be 5e dd 79 be d8 84 b6 be 85 cd b8 3d
       -0.26659316 -0.24400851 -0.35648227 0.09023575
000340 06 55 0b be 0b 07 a5 be 54 0d 9b 3d 44 ba 0b be
       -0.13606653 -0.32231936 0.075709015 -0.13645273
000350 ed 7d bf be 66 ec 41 be 92 97 f0 bd 02 f9 82 be
       -0.3740076 -0.18937835 -0.1174766 -0.25580603
000360 1e a4 bb 3e eb e0 a9 3e 83 81 7e 3e e0 49 2a 3f
       0.3664865 0.3317941 0.24854092 0.66518974
000370 60 66 f3 3e 2e a1 ae 3e f2 48 78 3e 4a 70 f3 3e
       0.47539043 0.34107345 0.24246576 0.47546607
000380 e7 dd 48 bd 2d 3d 0a 3f a3 23 58 3f 1a 40 d8 3e
       -0.049039748 0.53999597 0.8442938 0.42236406
000390 f4 d1 88 3e d3 0d c7 3e 94 14 a7 3e 57 1a 1f 3d
       0.26722682 0.38877735 0.32632887 0.03884348
0003a0 d9 32 71 bd ba 65 be be 30 05 d1 3d f4 fb 99 3e
       -0.058886383 -0.37186986 0.102060676 0.30075037
0003b0 a3 f1 4e 3e cc fb 0b bf 52 c8 12 bf 19 28 40 bf
       0.20209365 -0.54681087 -0.57336915 -0.75061184
0003c0 a0 2a 30 bf 34 e2 f8 be 24 bb 13 bf 04 6f 06 3f
       -0.6881504 -0.4861008 -0.5770743 0.52513146
0003d0 80 cc 17 3f 4e fc df 3e 88 05 80 3e 3e f5 7d 3e
       0.5929642 0.4374718 0.2500422 0.24800584
0003e0 10 1b 85 3e 00 b7 12 3f 06 3c 25 3f fe b2 75 3e
       0.2599721 0.57310486 0.64544713 0.23994061
0003f0 79 5c 52 3e ea 53 48 3e ad 96 89 3e cc 3d 8e be
       0.20543088 0.1956326 0.2687277 -0.27781522

conv2.bias f4 [128]
000000 bf dd 80 be 8a 9f ab 3e f0 eb 31 be 25 57 36 3d
       -0.2516918 0.33520156 -0.1737516 0.0445167
000010 cd 48 d3 3e 46 fe 1e bd 6b 7b 8e bd 6f 6c 8c 3e
       0.4126648 -0.038816713 -0.06957134 0.27426478
000020 d0 8a c3 3d 77 a7 92 be f4 c8 a2 3d 29 f5 1f 3e
       0.09547961 -0.2864339 0.07948485 0.15620865
000030 d1 c4 ec bd 0a cb 9b 3e a9 06 76 3e 4a ad d0 3d
       -0.11560977 0.30428344 0.24025978 0.10189302
000040 fc dc ac bd 43 60 a5 39 bc 9f 3b 3e 44 a0 eb be
       -0.08440587 0.00031542973 0.18322653 -0.4602071
000050 71 ec d0 3d c1 8d 26 bd d1 bd 35 3f f7 8a f7 bd
       0.102013476 -0.04066253 0.7099276 -0.12087052
000060 e4 44 2a 3f ff 8c d8 3d 65 75 53 3c d9 f2 a6 be
       0.6651137 0.10573768 0.012906407 -0.32607153
000070 9f f8 2c be 06 3b c7 bd 55 d1 ec bd b0 7d 23 be
       -0.16891716 -0.09728055 -0.115633644 -0.15965915
000080 68 d5 c8 bc eb ef 6c be e3 6d ce 3d 80 f6 28 3e
       -0.024515823 -0.23138396 0.10079553 0.16500282
000090 39 1f c4 bd 9b e4 5b 3e 4e 9c 63 bc 01 e1 0c 3e
       -0.09576268 0.21473925 -0.013892246 0.13757707
0000a0 1b f2 b4 3e bc f9 e9 3e 20 10 09 3f f2 b1 41 3e
       0.35340962 0.45698345 0.5354023 0.18915537
0000b0 43 fe 02 be 52 87 0f be ca d4 ca 3e d1 b2 c8 bd
       -0.12792306 -0.14016464 0.3961547 -0.097997315
0000c0 a8 3d 04 3e 71 62 00 3e 98 d1 c8 bd 44 76 6a bd
       0.12914145 0.12537552 -0.09805602 -0.057241693
0000d0 a4 c6 9a 3c 55 18 19 3e dd 48 2c bd 7b e1 aa 3d
       0.018893547 0.14950688 -0.042061675 0.08343788
0000e0 17 d0 9f 3e e5 9d b7 3e ef 95 66 be f3 b7 c4 be
       0.31213447 0.3586265 -0.22518133 -0.38421592
0000f0 1d 59 90 be 2b e3 b6 3e 2f 94 d6 3d e6 d5 45 bd
       -0.28192988 0.3572019 0.104774825 -0.048299693
000100 f7 9e d7 3e e4 ad 95 be 26 b0 af be 65 68 fe 3d
       0.42113468 -0.2923423 -0.34314078 0.124222554
000110 fa 8f f5 bd d9 20 74 be 83 68 07 3e 86 c9 c6 bd
       -0.11990352 -0.23840655 0.13223462 -0.09706406
000120 34 4b 67 be 87 63 e1 bd 94 4f 3b be 6d bb 50 3f
       -0.22587281 -0.110053115 -0.18292075 0.8153599
000130 1a 90 70 3d 7a ca 35 3f 34 96 a2 3d b3 94 85 be
       0.058731176 0.7101208 0.07938805 -0.2609001
000140 33 5d b1 be 05 81 cc 3e 61 9b a0 be 3b e3 cc bd
       -0.34641418 0.39942184 -0.31368545 -0.10004278
000150 ca ea a6 be 84 0f 1c bd 55 c2 89 be 07 7a d5 bd
       -0.32601005 -0.038100734 -0.26906076 -0.104236655
000160 e0 2d 93 be d1 ae 0e be 06 7e 6f 3e b2 52 38 3f
       -0.28745937 -0.13933875 0.23387918 0.72001183
000170 c7 51 e8 bd 1a 37 37 be fa 87 50 be 7e 2e 33 3d
       -0.11343723 -0.17892113 -0.20364371 0.04374551
000180 5e d1 91 be ad 72 f6 3d 3f ca d8 bd 8a 04 13 3e
       -0.28480047 0.120335914 -0.105854504 0.143572
000190 1a cf 78 bd 67 84 17 3e 38 8a b2 be aa c6 b9 3e
       -0.060744382 0.14796601 -0.34871078 0.3628438
0001a0 46 37 9b bd 41 3e aa be 5a ea 93 be 1e a8 06 3f
       -0.07578902 -0.3325062 -0.28889734 0.52600276
0001b0 1b 91 43 3e a5 2f 13 be ea 5a b1 3e 07 d3 7e 3d
       0.19098322 -0.14373644 0.34639674 0.06221297
0001c0 9e 17 ad be 35 4a 88 bd 89 5b 23 be 40 f8 64 3d
       -0.3380708 -0.06654779 -0.15952887 0.055900812
0001d0 eb 4f cf 3e 2e 66 46 bd 17 e6 e4 3c 40 17 a2 3e
       0.4049066 -0.04843729 0.027941747 0.31658363
0001e0 ff f3 5d 3e 3b 1a e8 3d 23 f0 31 be ea fd 7e be
       0.21675108 0.11333128 -0.17376761 -0.24901548
0001f0 74 9c 99 3e b2 91 32 3e c0 40 ea bd be 38 c9 bd
       0.30002177 0.17438391 -0.11438131 -0.09825276

fc1.weight f4 [64, 128]
000000 c0 69 82 bb 5f 09 4c bd cb da 31 bd 92 2e 6b bd
       -0.0039798915 -0.049813624 -0.043421548 -0.05741746
000010 48 96 62 3c 22 d9 36 bd 8d 8c 92 bd b5 97 0d bd
       0.013829775 -0.044640668 -0.07155714 -0.034568507
000020 d2 6c 6c 3d 20 96 8f bc b1 73 39 bd 6c f9 11 3d
       0.057720967 -0.01752764 -0.045276348 0.035638258
000030 fb 5f 82 bd d4 ef d1 3c 78 9a fb 3c b2 1e 25 3d
       -0.06365963 0.025627054 0.030713305 0.040312476
000040 a6 79 55 3d 64 5d f2 bc 92 22 a0 bd 62 1f b0 bd
       0.052117966 -0.029585548 -0.07819094 -0.08599736
000050 2d 3c 34 bd a4 06 6c bd 18 8c e0 3c 7f 28 a6 3d
       -0.0440027 -0.05762352 0.027410552 0.08113193
000060 2c 32 95 3c 9b 60 b1 3d 9b d1 5a bd 3c c0 b8 3c
       0.0182124 0.08661004 -0.05342255 0.022552602
000070 7c 76 a6 bd c2 5c 63 3d 30 67 06 bd 3f 3f ac 3d
       -0.08128068 0.055508383 -0.03281325 0.08410501
000080 44 f7 98 bc da 4a a8 bd 68 0f 32 3c 4d e3 ab 3d
       -0.018672593 -0.08217402 0.010867931 0.083929636
000090 fe f2 18 3d 19 55 99 3d c4 87 3f bd c0 d6 67 bc
       0.03734111 0.07486934 -0.046760336 -0.0141503215
0000a0 30 ed 98 bd 40 08 53 bd d4 d2 09 bd f1 b0 92 3d
       -0.07467115 -0.05152154 -0.033648327 0.07162655
0000b0 04 68 8d bd 8a 5d 51 3d 09 52 4e bd 3c ba 4c bd
       -0.06904605 0.051114596 -0.050371204 -0.049982294
0000c0 38 81 6e 3c 00 93 9c b9 3e de 8b bd 19 6c 31 bd
       0.014557175 -0.00029864162 -0.06829499 -0.04331598
0000d0 ea 3b 73 3d 7c 67 94 3c c0 6a 1c 3b 51 fd a5 bd
       0.05938331 0.018115751 0.002386734 -0.08104957
0000e0 d1 ff ae bd 90 7d 93 bd 00 cc ac 3b de 43 55 3d
       -0.08544887 -0.072016835 0.005273342 0.052066676
0000f0 da 79 31 bd 16 de ee bc bf ec 33 bd 98 c0 85 bd
       -0.043329097 -0.029158633 -0.04392695 -0.06530875
000100 40 b1 b4 ba ab 09 9e 3d 96 14 54 3d ab 16 a0 3d
       -0.0013785735 0.07716688 0.051777445 0.078168236
000110 8d 5b 06 bd 10 98 fa 3b 7c bf fe bc 87 bf 9a 3d
       -0.032802153 0.007647522 -0.031097166 0.07556062
000120 9c 00 a7 bc 85 aa 79 bd a4 05 0e 3d ff f8 9e 3d
       -0.020386033 -0.060953636 0.034673348 0.07762336
000130 68 92 76 bd 36 b3 6f 3d 50 8d 71 bc 76 3d 60 3d
       -0.060198218 0.05852052 -0.014743164 0.054746114
000140 f2 1c 19 3d c2 19 b2 bd 34 3b 0a 3d 48 47 5d bc
       0.03738112 -0.08696319 0.033747867 -0.013505764
000150 91 eb 72 bd ca 50 8a bd 63 c0 91 3d ca 41 25 3d
       -0.059306685 -0.067536905 0.07116773 0.040345944
000160 78 6a 2a bc 62 be 25 bd 2b b4 8c bd c4 a1 83 bd
       -0.010401361 -0.040464766 -0.06870302 -0.06427339
000170 68 9a f2 bc eb e1 a7 3d 46 9d af bd 0f 23 91 3d
       -0.029614642 0.08197387 -0.085749194 0.07086765
000180 e0 fb bf bb d8 c7 0f 3d d0 f9 7d 3c 54 96 39 bd
       -0.0058588833 0.035102695 0.0155014545 -0.04530938
000190 b6 18 62 bd c7 53 a4 3d da af 73 bd aa 03 26 3d
       -0.055199347 0.08023792 -0.059493877 0.040530838
0001a0 12 66 42 3d 7a c2 47 3d 5e 37 4f 3d 50 32 bf 3b
       0.047460623 0.04876945 0.05058991 0.005834855
0001b0 2f 46 96 bd 68 ab 07 bc 7a e2 95 bd 09 51 ae 3d
       -0.07337605 -0.0082806125 -0.073185876 0.0851155
0001c0 a8 1b af 3c 27 b0 ab 3d b0 0a 99 3b 42 ef 2a bd
       0.021375492 0.08383208 0.0046704635 -0.04173208
0001d0 16 4b 46 bd 78 00 6c bc f0 ab b0 bd 49 8d b0 3d
       -0.04841145 -0.014404409 -0.086265445 0.08620698
0001e0 38 15 7a 3c e0 aa 4d 3b 90 1c 23 bc ba 7a 57 3d
       0.015263848 0.0031382367 -0.00995554 0.052607276
0001f0 c0 99 89 bd 40 6a 44 bd 1c 28 5c bd c0 6c 44 bc
       -0.067187786 -0.04795289 -0.05374919 -0.011988819
000200 9f 13 15 3d 20 80 d4 bd 94 57 a7 3c a4 e3 d5 bd
       0.036395665 -0.103760004 0.020427503 -0.1044381
000210 c0 5b 12 bd 1b 03 fe bd 41 50 b6 bd 89 f6 7d 3c
       -0.03573203 -0.12402936 -0.08902026 0.015500673
000220 47 21 44 bd b3 68 d3 3c cb c1 ef bc 83 31 d8 bd
       -0.0478833 0.02580676 -0.029267212 -0.105563186
000230 5f 8e b0 bb dc 3f 4d bd 43 11 f4 bd 7a 9e eb bc
       -0.0053880657 -0.05010973 -0.11917355 -0.028762091
000240 a9 96 90 3b a8 5e d6 bd 7d 72 f5 bd 00 e1 0b 3d
       0.0044124913 -0.10467273 -0.119847275 0.034150124
000250 d8 03 88 bc 22 8a 35 bc 14 05 64 bc ac 7c 93 bd
       -0.016603395 -0.011080297 -0.013917226 -0.07201514
000260 95 e8 5f 3c 0d 71 cd bd 1f 22 12 bd 4e 21 09 bc
       0.013666292 -0.10031328 -0.03567707 -0.008369757
000270 ef 09 7b bd c3 75 85 bd 3e 90 23 bd 69 4b 1e 3d
       -0.06128877 -0.06516602 -0.039932482 0.038646135
000280 fc 61 30 3d b5 02 6a 3d e2 cf 03 be d4 06 ff bd
       0.043062195 0.057131488 -0.1287227 -0.12452474
000290 2d c9 a4 bd 0c f2 76 3c d7 d5 89 bd 32 d8 aa bd
       -0.08046184 0.015072357 -0.0673024 -0.08342017
0002a0 a7 ba a5 bd d6 84 ff 3b a0 80 9e bd 2b 40 11 be
       -0.08092242 0.0077978177 -0.07739377 -0.14184634
0002b0 7b 85 2a bd cf 71 12 3c f8 29 0e bc 54 44 db bd
       -0.041631203 0.008938267 -0.008676998 -0.10706392
0002c0 d3 44 14 3d 2e 7e 91 bc 14 ab 18 bd ec e1 cd 3c
       0.03619845 -0.017760362 -0.037272528 0.025132142
0002d0 b4 b0 3d bd 84 57 5a bc c0 6c 96 bc 97 6f 35 bd
       -0.046311095 -0.013326529 -0.018362403 -0.044295873
0002e0 4a 38 db 3a 1c dd af bb 42 3b d0 bd e3 08 b2 3c
       0.001672515 -0.0053669345 -0.101675525 0.021732753
0002f0 10 fe cd bd 5c 41 2e bb 0d 8d 87 bd c2 48 ee bc
       -0.10058224 -0.002658925 -0.066187 -0.029087428
000300 cc 1e b9 bd d9 25 da 3c 91 54 26 bd 6c bc 9c bd
       -0.09039077 0.026629375 -0.040607993 -0.07653126
000310 94 a0 b0 bd 15 11 b1 bd f6 05 c1 bd 8e 90 a0 bd
       -0.08624378 -0.08645836 -0.09424965 -0.078400716
000320 ee 83 6f bd 52 6f a5 bc 92 c3 61 bd c3 7f f1 bc
       -0.058475427 -0.020194683 -0.05511815 -0.029479867
000330 5c 96 b4 bc 5e 41 df bb 4e e7 0c bd ca ae a3 bd
       -0.022044353 -0.0068132123 -0.034400277 -0.07992323
000340 b5 c9 a8 bd 60 ff 22 be be 34 4e 3c 3e e4 bb bd
       -0.082415976 -0.1591773 0.012585817 -0.09174393
000350 3a 62 0c 3d d9 b5 7a bc e4 a6 69 bd bc 55 89 bd
       0.034273364 -0.015302145 -0.057043925 -0.06705806
000360 4a fc ca bc 7b a3 da bd 47 5d 8e bd 7c 5d a9 3c
       -0.024778504 -0.10675713 -0.06951385 0.02067446
000370 d9 88 2b bd 24 e8 dc bc d4 28 e8 bd 84 d7 7c bd
       -0.041878555 -0.026966162 -0.11335912 -0.06172897
000380 72 02 14 be 13 60 c2 bd 7b ed 96 3c b4 79 a2 3c
       -0.14454058 -0.09490981 0.018423786 0.019833423
000390 af 05 57 3c f1 25 2f 3d f5 21 d2 bd cb 98 ea bd
       0.013123914 0.042760793 -0.10260383 -0.11454924
0003a0 a6 de a6 3c e8 5e c1 bc f3 7b 54 bd e1 88 ab bd
       0.020369839 -0.023604825 -0.05187602 -0.08375717
0003b0 3d 88 12 bd ea 0c 0d 3d 82 e9 d3 bd 08 db f7 3c
       -0.03577446 0.034436144 -0.103472725 0.03025581
0003c0 a0 cc 40 3d 9d 65 a2 3c 5d 21 55 bd dc fa a7 3c
       0.047070146 0.019823844 -0.05203377 0.020505361
0003d0 da 4c b1 bc 66 eb 9d bd 8d 59 38 bd c3 23 9e 3b
       -0.021643091 -0.07710914 -0.045007277 0.0048260405
0003e0 c0 9f 0e be d1 3b 8d bc d0 cb 0a bc 5d e6 9d bd
       -0.13928127 -0.017240437 -0.008471444 -0.07709954
0003f0 f7 f6 8d bd 65 b4 4c bd f7 56 ea bd 6c 9f f0 bd
       -0.069318704 -0.049976725 -0.114423685 -0.11749157

fc1.bias f4 [64]
000000 a4 18 11 bd a0 06 c1 bd 3c d7 15 bc cf ec 1f bc
       -0.03542389 -0.09425092 -0.009145554 -0.009761049
000010 c4 78 71 bd 6b 9b 26 bd e7 53 8e 3d 00 fa e8 bc
       -0.05895306 -0.040675562 0.06949597 -0.028439522
000020 89 fd 1b 3f e3 95 db bc c8 14 2f 3e c8 77 ba bc
       0.6093374 -0.02680487 0.17097771 -0.022762194
000030 c0 1a 54 3d e1 58 a4 bb 2f 91 92 3d 9a 04 a7 bc
       0.051783323 -0.005015478 0.07156598 -0.020387936
000040 dd db 3d 3f 44 59 25 3f 7a 79 3c 3d 0f 3b 28 bd
       0.7416361 0.64589334 0.046014287 -0.041071948
000050 6a b1 f4 bd 08 0c e8 3c bf 7c c3 3d 28 f5 cb bd
       -0.119479015 0.02832605 0.09545278 -0.09958869
000060 37 f0 0a be 99 48 e2 bd 0d d6 9c bd ca 56 b0 bc
       -0.13568197 -0.11049003 -0.076580144 -0.02152576
000070 98 47 3c 3c 35 fb b0 3e 4d a5 39 3f fe 08 28 3d
       0.011491679 0.34566656 0.72517854 0.0410242
000080 19 32 c2 3c 35 6b 1b 3f 8a f2 4f 3d c1 9d 79 3c
       0.023705529 0.6071046 0.050768413 0.015235365
000090 2d 2f ed bd 51 37 4d 3d 45 23 0f bd f2 89 1b bd
       -0.11581264 0.050101582 -0.034945745 -0.03797335
0000a0 22 73 33 3f 5d c2 f2 3a 1d 5d 86 bd b7 a1 12 3c
       0.70097554 0.001852106 -0.06560729 0.008949689
0000b0 52 30 cc bd a5 9a 8a bc 88 96 7e 3c ca 6d ee bc
       -0.09970154 -0.016919443 0.015538819 -0.029105086
0000c0 6e ad 07 bd 8d c9 40 3d 4e 1e d9 bc c0 a4 99 bd
       -0.03312438 0.047067214 -0.026503708 -0.07502127
0000d0 85 f4 f7 bd 58 b5 e8 3c 24 9e 15 3f 6b e6 6c bc
       -0.12107185 0.028406784 0.5844443 -0.014459233
0000e0 1e d1 41 bb 81 4b 7d 3d e0 24 f3 3e 02 f5 19 3f
       -0.0029574106 0.061839584 0.4748907 0.6013948
0000f0 93 40 ac b9 6a 1a e3 bd d3 5c 37 bd 90 8a 3c 3d
       -0.00032854508 -0.110890225 -0.04476626 0.04603058

fc2.weight f4 [1, 64]
000000 30 4b b3 bd f0 8a e1 3c d3 f5 5a bd 1f a2 e5 bc
       -0.08754575 0.02753207 -0.053457092 -0.028031407
000010 da 01 c8 bc 3e c8 dc 3c 68 cf bd bc c8 99 ea 3b
       -0.024414945 0.026950952 -0.023170188 0.0071594454
000020 7f 63 29 3e 42 b0 0d bc 8f e8 86 bd 0e ff db bc
       0.16541861 -0.00864798 -0.06587326 -0.026855018
000030 9a 32 83 bd e8 50 5d 3c e7 9b c6 39 f6 7b 59 bb
       -0.06406136 0.013508059 0.0003788166 -0.0033185459
000040 8d 0f 6b 3e 12 33 09 3e e4 54 9a 3b 13 05 02 be
       0.22955151 0.13398388 0.004709827 -0.12697248
000050 15 66 9c bc e0 fe 4d bc ac 64 f1 bb 47 f7 b2 bc
       -0.019091645 -0.012572974 -0.0073667374 -0.021846427
000060 28 dd a1 be f2 52 49 bd 40 af 0a 3b 28 4e 22 bc
       -0.3161404 -0.04915137 0.0021161586 -0.009906329
000070 3a 76 b9 bd fd 49 c1 3d 81 f3 63 3e 80 f4 65 bb
       -0.09055753 0.0943794 0.22260858 -0.003508836
000080 3d ad 6b 3c d3 c4 2f 3e dc bd 38 bc 81 f4 0f 3d
       0.014384565 0.17164926 -0.011275735 0.035145286
000090 f8 b7 13 3c 93 38 0d 3e 10 6d c2 3c f2 28 8e bd
       0.00901603 0.13791113 0.023733646 -0.069414034
0000a0 3a cf 40 3e e7 d1 e6 3c dd 12 c6 3d c6 c3 19 bd
       0.1882905 0.028176261 0.09671567 -0.03754022
0000b0 45 cb 8e 3d ff cb ba bd f3 bc be 3a 12 8a c5 3d
       0.06972364 -0.091209404 0.0014552161 0.096454754
0000c0 5e f1 54 bd 2c b0 c9 bc 57 bb b1 3a b4 33 8f bd
       -0.051988 -0.024620138 0.001355986 -0.069922835
0000d0 12 19 42 3c 0f 31 87 bd 72 4e 0d 3d 31 e8 a2 3c
       0.011846798 -0.06601154 0.03449864 0.019886108
0000e0 2c 0a 9b be 3f c6 1c ba c1 59 c8 3e a6 67 0e 3e
       -0.30281198 -0.00059804687 0.39130977 0.13906726
0000f0 22 ab 67 bc 87 e8 ff 3c dd cd a8 bc 23 ad 1c bc
       -0.014139922 0.031238807 -0.020605976 -0.009562763
