models/phrase001_speech_model.pth (torch, 145844 bytes, 7 tensors)

conv1.weight f4 [64, 13, 3]
0	0x3e02ba7f	0.12766455
1	0x3ce339bc	0.02773749
2	0xbdacea1f	-0.084430926
3	0xbe1dc05f	-0.15405415
4	0xbd37ff77	-0.044921365
5	0x3dd146b1	0.102185614
6	0xbd70515c	-0.05867134
7	0x3af989e9	0.0019038293
8	0xbd762f8b	-0.060103934
9	0xbcc05a88	-0.023480669
10	0x3dccbc7e	0.099968895
11	0xbbe8ecc5	-0.0071083033
12	0xbda0e744	-0.078566104
13	0xbdd902bf	-0.10596227
14	0xbe18aa9d	-0.14908834
15	0xbd9b3db9	-0.07580132
16	0x3e002a95	0.12516244
17	0x3df9cd08	0.1219731
18	0x3df76f83	0.12081816
19	0x3de70d90	0.11281884
20	0x3de1852c	0.11011729
21	0xbdc998a0	-0.09843564
22	0x3daa9299	0.083287425
23	0x3e2a0c74	0.16606313
24	0x3e027c63	0.12742762
25	0xbdcd51f3	-0.10025396
26	0xbd796376	-0.06088587
27	0x3daff977	0.085925035
28	0x3db02ead	0.08602653
29	0x3d5c8688	0.053839236
30	0xbd59e541	-0.05319715
31	0x3d0a7b75	0.033809144
32	0x3d9f6db5	0.07784597
33	0x3d87e19b	0.06634828
34	0xbe001a80	-0.12510109
35	0xbd84ebcf	-0.064902894
36	0xbd623ce7	-0.055233862
37	0x3cd5199f	0.026013194
38	0xbdfb93d9	-0.12284059
39	0xbd0d8cf2	-0.034558244
40	0xbcb31ff9	-0.021865832
41	0x3df5e63e	0.12006806
42	0x3d56d542	0.052449472
43	0x3dfac8cc	0.1224533
44	0xbd0a9cba	-0.033840872
45	0x3d2c21a6	0.042024277
46	0xbdfdcef4	-0.12392989
47	0x3c8376ef	0.016047923
48	0xbd88c73f	-0.06678628
49	0x3d48396f	0.048882898
50	0x3d46ff6a	0.048583426
51	0xbe0aa552	-0.13539627
52	0x3d71711e	0.058945768
53	0x3ceb5046	0.0287248
54	0x3c276e65	0.010219191
55	0xbd53e36c	-0.05173056
56	0xbe147b3a	-0.14500132
57	0x3deb2462	0.11481549
58	0x3dc46f52	0.09591545
59	0x3d94e727	0.07270651
60	0x3d39c4b9	0.045353625
61	0x3ce3220d	0.027726198
62	0x3df7f84a	0.12107904
63	0x3d382c17	0.044963922
64	0xbd1fdd79	-0.039029572
65	0x3de59ff3	0.112121485
66	0xbcfe4ec8	-0.031043425
67	0x3d7f6643	0.062353384
68	0x3d84919e	0.06473087
69	0xbdea064c	-0.11426982
70	0xbd7b592c	-0.061364338
71	0xbd9e43c4	-0.07727769
72	0xbdffb25e	-0.12485193
73	0x3d4084d1	0.047001664
74	0xbc374039	-0.0111847455
75	0xbe13dfdd	-0.14440866
76	0x3df6315c	0.12021133
77	0x3d998a12	0.07497038
78	0xbdda430a	-0.10657318
79	0xbcb44f90	-0.022010595
80	0x3e13d67b	0.14437287
81	0xbd83b841	-0.06431628
82	0xbce6232f	-0.028092949
83	0x3d4fb39f	0.05070841
84	0xbd227b5c	-0.039668426
85	0x3e14b23d	0.14521118
86	0x3d51c7a4	0.051215783
87	0x3dbc7ba0	0.09203267
88	0xbdb8ce50	-0.09023726
89	0xbd208c7f	-0.039196488
90	0xbd7a6baf	-0.06113785
91	0x3dc402cb	0.09570845
92	0x3d2fd05f	0.042923328
93	0x3d8f8fd4	0.07009855
94	0xbd28ed79	-0.041242097
95	0xbde184f0	-0.11011684
96	0xbdfe83bd	-0.12427471
97	0xbd07d3c2	-0.033160932
98	0x3e0e8a91	0.13920046
99	0x3d860455	0.06543795
100	0xbe21c25a	-0.15796795
101	0x3d77ee18	0.0605298
102	0x3e11ecc2	0.14250472
103	0x3d835bb3	0.064139746
104	0xbdd1d511	-0.10245717
105	0xbd449a60	-0.047998786
106	0x3d55d711	0.052207056
107	0x3c0c4a52	0.008562641
108	0xbd50855b	-0.050908428
109	0x3df3093e	0.11866997
110	0x3e120c74	0.14262563
111	0xbdbf0305	-0.09326748
112	0x3d3abbff	0.045589443
113	0xbde65a0d	-0.112476446
114	0xbde4df0f	-0.111753576
115	0x3cdfc9e5	0.02731795
116	0x3dc3ef4f	0.09567129
117	0x3d2fae00	0.04289055
118	0x3dc714ef	0.0972079
119	0xbcd1f10b	-0.025627634
120	0x3d42bd8a	0.04754404
121	0x3dc089c2	0.09401275
122	0x3dad7961	0.08470417
123	0xbdf64766	-0.12025337
124	0xbdc6028e	-0.09668456
125	0x3cd109fa	0.025517453
126	0x39df9867	0.00042647423
127	0xbdae5edf	-0.08514189
128	0xbdd19b65	-0.10234717
129	0x3ac97a86	0.0015371598
130	0x3e15ac21	0.14616443
131	0xbe1b2411	-0.15150477
132	0x3d937711	0.072004445
133	0xbda5c3a9	-0.0809396
134	0xbd81020f	-0.06299221
135	0xbdba0e81	-0.09084798
136	0xbcb4c22c	-0.022065245
137	0x3cb53d61	0.022123994
138	0xbd170025	-0.036865372
139	0x3d53c58b	0.051702064
140	0x3db1793c	0.08665702
141	0xbda794ff	-0.081827156
142	0x3d657855	0.05602296
143	0xbc99b717	-0.018764062
144	0x3df8b419	0.12143726
145	0x3d7a865b	0.061163288
146	0x3e142448	0.14466965
147	0x3cd9b23f	0.026574252
148	0x3e04297e	0.12906453
149	0x3df78fe9	0.120879956
150	0xbcd667d6	-0.02617256
151	0x3da98de1	0.082790144
152	0xbe1ba3ca	-0.151992
153	0xbd3ba4df	-0.04581153
154	0x3dbac7db	0.09120151
155	0x3debd367	0.11514931
156	0xbd582feb	-0.052780073
157	0x3e09a2dd	0.13441034
158	0xbdf83699	-0.12119789
159	0x3ac5124f	0.0015035364
160	0xbdd51eb3	-0.10406246
161	0x3d24b464	0.040211096
162	0xbe120764	-0.14260632
163	0x3cd847ce	0.026401427
164	0xbd9b4f1e	-0.0758345
165	0x3da945b1	0.08265246
166	0xbd1ebd5d	-0.03875481
167	0x3cce2bba	0.025167335
168	0xbdb5afab	-0.08871397
169	0xbd54c952	-0.051949807
170	0x3dfb3ec5	0.12267832
171	0xbd8b3a8f	-0.067982785
172	0x3dfb86be	0.122815594
173	0x3c2c0d6a	0.010501245
174	0x3e0577a5	0.13033922
175	0xbe25f052	-0.16204956
176	0x3e166cba	0.14689913
177	0xbcf16112	-0.029465232
178	0xbe1a62af	-0.15076707
179	0xbdcc348f	-0.09970962
180	0x3c8b9f9c	0.017043881
181	0xbdb58451	-0.08863128
182	0x3d849816	0.064743206
183	0x3d60612f	0.05478018
184	0xbd6f01d3	-0.05835135
185	0x3d8f1505	0.06986431
186	0xbde2a6d9	-0.1106698
187	0x3d544a2b	0.051828545
188	0x3df7d094	0.1210033
189	0x3dd59f6d	0.10430799
190	0xbd824579	-0.06360907
191	0x3b62ad0b	0.0034588005
192	0x3d78bfe5	0.06072988
193	0x3c4c46de	0.012468068
194	0xbe1449a4	-0.14481217
195	0x3e052e64	0.13005978
196	0x3bf343e5	0.007423865
197	0xbd114167	-0.035462763
198	0x3dde3aa8	0.108510315
199	0x3da6313b	0.08114859
200	0x3da2f251	0.079563744
201	0x3cbb8f34	0.022895433
202	0x3d85de03	0.06536486
203	0x3d6e2967	0.058144953
204	0xbdb83c17	-0.08995836
205	0xbdca2739	-0.098707624
206	0x3d5c84a0	0.05383742
207	0xbde68498	-0.11255759
208	0x3b462510	0.0030234493
209	0x3c90fc00	0.017698288
210	0x3d02e436	0.03195592
211	0xbd8e603b	-0.06951948
212	0x3e240ab7	0.16019712
213	0x3dcd2714	0.10017219
214	0xbb8769c8	-0.004132483
215	0x3d71da7a	0.059046246
216	0x3e0aac68	0.1354233
217	0xbdd205ab	-0.10254987
218	0x3dc7fef9	0.09765429
219	0x3e197597	0.14986263
220	0x3c7beaeb	0.015375833
221	0x3dbd255b	0.092356406
222	0xbda2bcec	-0.0794619
223	0xbde87475	-0.113503374
224	0xbdc70020	-0.09716821
225	0xbe184786	-0.14871034
226	0xbcc1abe7	-0.02364154
227	0x3e0c74ca	0.13716426
228	0x3b3f8676	0.0029224432
229	0xbd5893ea	-0.052875437
230	0x3d6b2fba	0.057418562
231	0xbdf5bbe7	-0.1199873
232	0x3df3ede5	0.11910609
233	0xbd7d99b9	-0.06191418
234	0x3dcbcd2a	0.09951241
235	0xbe1547b8	-0.1457814
236	0x3de60cc5	0.11232904
237	0xbdc928f4	-0.09822264
238	0x3e0ff1b8	0.14057052
239	0xbd61ab69	-0.05509511
240	0x3e2659f4	0.16245252
241	0x3dea0fc4	0.11428788
242	0x3da07576	0.07834904
243	0xbbea612d	-0.0071526975
244	0xbd933ece	-0.071897134
245	0xbdf0c3f6	-0.117561266
246	0xbc92b636	-0.01790915
247	0x3e1cc758	0.15310419
248	0xbdcb1fc4	-0.09918168
249	0x3e01e8cb	0.1268646
250	0x3e013258	0.12616861
251	0x3dc424c1	0.09577323
252	0xbd1df072	-0.038559385
253	0xbd7c3335	-0.061572272
254	0xbdb4f64f	-0.08836042
255	0xbdeafb2e	-0.1147369

conv1.bias f4 [64]
0	0x3e0d90b2	0.13824728
1	0x3e0e9b35	0.13926394
2	0x3db7fdf1	0.08983982
3	0x3cb1c746	0.021701466
4	0xbc833e20	-0.016020834
5	0x3e142e6b	0.14470832
6	0xbddadf66	-0.10687141
7	0xbe08b341	-0.1334963
8	0x3d8dec1c	0.069298
9	0x3e204690	0.15651917
10	0xbdbc4e5a	-0.09194632
11	0xbbfede7e	-0.007777988
12	0xbdacb2a6	-0.08432512
13	0x3d4c17c7	0.049827363
14	0xbd9f3ddf	-0.07775473
15	0x3c67e2b0	0.014153168
16	0x3e02a006	0.12756357
17	0xbd14bedf	-0.03631484
18	0xbd9b865a	-0.07593985
19	0x3c158913	0.009126919
20	0xbd5c235d	-0.053744663
21	0x3da1bd41	0.078974254
22	0xbdf96a93	-0.121785305
23	0xbe0a9c23	-0.13536124
24	0x3e03f8a2	0.12887815
25	0xbdb566f5	-0.08857528
26	0xbda70686	-0.08155541
27	0x3e152b04	0.1456719
28	0x3d6efca2	0.0583464
29	0x3d320f74	0.04347177
30	0x3d078da5	0.033094067
31	0x3dd3f895	0.10350148
32	0x3da467d3	0.080276154
33	0x3dc8fe30	0.098141074
34	0xbe167d27	-0.1469618
35	0xbda26c28	-0.079307854
36	0xbc3a5563	-0.011372897
37	0x3d88182d	0.06645236
38	0xbde500e7	-0.11181813
39	0x3dc0145e	0.09378885
40	0xbe23d3a4	-0.15998703
41	0xbd5eddb6	-0.05441066
42	0xbd9a5d02	-0.07537271
43	0xbccebd9e	-0.0252369
44	0xbdef7ab9	-0.11693329
45	0x3dedd97d	0.11613748
46	0xbdf9c537	-0.12195819
47	0x3cce37a3	0.025173014
48	0x3d9a8144	0.07544187
49	0x3e107750	0.14108014
50	0x3d524e25	0.051344056
51	0x3d377fa8	0.044799477
52	0xbc0c59b0	-0.008566305
53	0x3dbc3566	0.091898724
54	0xbdc0fc72	-0.0942315
55	0xbcec6e83	-0.02886129
56	0x3d05528d	0.03254943
57	0xbe06e0cb	-0.13171689
58	0xbd5d3b5e	-0.054011695
59	0x3db9102d	0.090362884
60	0xbe0fd29c	-0.14045185
61	0xbc7db396	-0.015484711
62	0xbdac7100	-0.084199905
63	0x3ce7dc9f	0.028303443

conv2.weight f4 [128, 64, 3]
0	0x3c83baa8	0.016080216
1	0x3d4ede8e	0.050505213
2	0x3cf11e00	0.02943325
3	0x3d6b8f7e	0.05750989
4	0xbcaf948f	-0.021433143
5	0xbc0de975	-0.0086616175
6	0x3d655798	0.05599174
7	0x3d613d6b	0.054990213
8	0x3d03a1e5	0.032136817
9	0x3d7a63d3	0.061130356
10	0x3b95329f	0.0045531536
11	0xbd5b6934	-0.053567126
12	0x3bde6aac	0.0067876186
13	0x3d5bfc3e	0.053707354
14	0xbd881e09	-0.06646354
15	0x3cd293ce	0.025705244
16	0x3cb86f60	0.022514045
17	0xbd53dc6e	-0.05172389
18	0xbd173abb	-0.036921244
19	0xbc8060db	-0.015671184
20	0xbd036ecd	-0.03208809
21	0xbb563804	-0.0032687197
22	0xbd0637b4	-0.032767966
23	0x3d770507	0.06030753
24	0x3d792274	0.060823873
25	0xbd41bb19	-0.04729757
26	0xbd829a36	-0.0637707
27	0xbd72ef03	-0.05930997
28	0xbd01558f	-0.031575736
29	0xbc8ac958	-0.016941711
30	0xbd025ce9	-0.031826887
31	0xbc9ee43c	-0.01939594
32	0xbc6a897f	-0.014315008
33	0x3d58e14c	0.052949235
34	0x3d7ea538	0.062169284
35	0x3c5eae60	0.013591379
36	0x3d2bafdd	0.041915763
37	0x3d8fec13	0.070274495
38	0x3d7b6bb2	0.061382003
39	0x3cfca408	0.030839935
40	0x3bcc94b7	0.006243314
41	0xbcfc2f09	-0.030784147
42	0xbd8ffede	-0.07031034
43	0x3d3d3b60	0.046199203
44	0xbca6b4ab	-0.020349821
45	0xbaf27876	-0.0018499035
46	0x3cfb4d8e	0.03067663
47	0x3c353092	0.011058943
48	0xbd3b024e	-0.045656495
49	0x3c2fd063	0.010730836
50	0xbd8e94ab	-0.0696195
51	0x3c82969e	0.01594096
52	0xbd68e3ca	-0.05685786
53	0xbd3f5d8b	-0.04672007
54	0xbca06ef8	-0.019584164
55	0x3cfb8a3c	0.030705564
56	0x3d8235ac	0.06357893
57	0xbd09432e	-0.033511333
58	0x3cf97195	0.030449668
59	0x3cafa660	0.021441638
60	0x3c6d474a	0.014482329
61	0xbd62bb39	-0.05535433
62	0x3d2e646a	0.04257623
63	0xbcecefc4	-0.028922923
64	0x3d8b1f65	0.067930974
65	0xbc82ce8e	-0.015967634
66	0xbd85c9dc	-0.06532642
67	0xbd11cffd	-0.035598744
68	0xbbca4b50	-0.0061735287
69	0xbc3d2f10	-0.011546865
70	0x3a7c85e5	0.0009632989
71	0x3c2730a9	0.010204473
72	0x3c33c97f	0.010973333
73	0x3c2c0c01	0.010500909
74	0xbc03dfc6	-0.008048957
75	0xbd3ad284	-0.04561092
76	0x3d10a0e6	0.035309695
77	0xbd3b21cf	-0.04568654
78	0x3d018237	0.031618323
79	0xbd89c8a5	-0.06727723
80	0x3d719b52	0.058986016
81	0xbd663ec0	-0.056212187
82	0xbd117a2c	-0.035516903
83	0x3d0b96a5	0.034079213
84	0x3d0ca3f6	0.034336053
85	0x3b885d48	0.0041615106
86	0x3c85e851	0.016346129
87	0xbd8fb3d3	-0.070167206
88	0x3d8af5b4	0.067851454
89	0xbd525340	-0.051348925
90	0xbafa824e	-0.001911232
91	0x3b7c30dc	0.003848127
92	0xbd395b2f	-0.045252975
93	0xbd92df74	-0.071715266
94	0x3c1725c5	0.009225314
95	0x3c1c36f7	0.009534589
96	0xbd525332	-0.051348872
97	0x3d6a1fb4	0.05715914
98	0xbd79330a	-0.06083969
99	0xbcb924de	-0.022600587
100	0x3b9dabe0	0.004811749
101	0x3d6494ef	0.055806097
102	0x3d5cddd3	0.053922486
103	0x3d3dc079	0.046326134
104	0x3d221294	0.0395685
105	0xbd788680	-0.060675144
106	0x3d4d2fab	0.050094288
107	0x3cd26944	0.02568496
108	0xbd52b79f	-0.051444646
109	0xbd87182b	-0.065964065
110	0xbd8eaaec	-0.069661945
111	0xbd483ee9	-0.04888812
112	0x3c85e083	0.016342407
113	0x3d7f46cc	0.062323377
114	0x3d3c5946	0.045983575
115	0x3d079436	0.03310033
116	0x3d250ec5	0.04029729
117	0x3b9baf73	0.00475114
118	0x3caedf40	0.021346688
119	0xbd13890b	-0.036019366
120	0x3d8d18ef	0.06889521
121	0xbd960a8e	-0.07326232
122	0x3bd6e897	0.0065584886
123	0xbcb6809c	-0.022278123
124	0x3c8f09df	0.017460762
125	0xbd2c3705	-0.04204466
126	0xbce914ee	-0.028452363
127	0x3c11c3eb	0.008896808
128	0x3d1aec02	0.03782273
129	0x3a641414	0.00087005016
130	0xbd53a5b0	-0.051671684
131	0x3c11553a	0.008870417
132	0xbd8d7317	-0.06906717
133	0xbd70d86f	-0.058800157
134	0xbce5f90a	-0.028072853
135	0xbc94058d	-0.018069053
136	0x3cef76e4	0.029231496
137	0x3b431ef0	0.002977308
138	0xbd8eae71	-0.06966866
139	0x3c52ac0e	0.012858404
140	0xbd25a95c	-0.040444717
141	0xbc7248f7	-0.014787904
142	0x3c7c7224	0.015408073
143	0x3d0d596f	0.03450912
144	0xbc525704	-0.012838129
145	0xbc96e809	-0.01842119
146	0xbd769941	-0.060204748
147	0x3d1d65b7	0.03842708
148	0x3caf69f5	0.021412829
149	0x3b007608	0.0019601602
150	0xbd3d8145	-0.04626586
151	0x3cba377b	0.022731533
152	0x3d80b7db	0.06285068
153	0xbd00ac9f	-0.031414624
154	0xbc9b8e12	-0.018988643
155	0x3b0d1806	0.0021529212
156	0x3ce3e9bd	0.027821416
157	0xbc60a943	-0.01371223
158	0x3d8026fd	0.062574364
159	0xbd4bde16	-0.049772345
160	0x3d4a12d9	0.04933438
161	0x3ae3bf35	0.001737571
162	0x3c1352d4	0.008991916
163	0x3d51d3ce	0.051227383
164	0x3d080987	0.03321221
165	0x3c168bdd	0.009188619
166	0xbd8fae05	-0.070156135
167	0xbd0d5134	-0.03450127
168	0x3d14d0fc	0.036332116
169	0xbc0d910f	-0.008640542
170	0x3c78903e	0.015171109
171	0xbc80b9a3	-0.015713518
172	0xbd86ce6c	-0.065823406
173	0xbc537a58	-0.012907587
174	0x3ccb85bd	0.024844045
175	0x3ca02bd3	0.019552147
176	0x3d031c07	0.03200915
177	0x3d3f307c	0.046677098
178	0xbcc0e847	-0.023548258
179	0xbcff1b09	-0.031140821
180	0x3d4526e1	0.04813278
181	0xbcbc40e8	-0.022980168
182	0x3d76d889	0.060265098
183	0xbb71bd4a	-0.0036886507
184	0xbbae964e	-0.0053279763
185	0xbd7e92fc	-0.062151894
186	0xbd973452	-0.07383026
187	0x3cb56c5a	0.022146393
188	0xbd866379	-0.06561942
189	0x3c7ef665	0.015561675
190	0xbc40be7d	-0.011764166
191	0xbcf06dcd	-0.029349232
192	0xbd051059	-0.032486293
193	0xbafee963	-0.0019448217
194	0xbd7c9813	-0.061668467
195	0xbd3b5413	-0.045734476
196	0xbd3c26ac	-0.045935318
197	0xbd70e5eb	-0.058813017
198	0x3d3524ad	0.04422443
199	0xbb9ed943	-0.004847677
200	0x3c09a42d	0.008400959
201	0x3b9aad3e	0.004720359
202	0xba3dbcbc	-0.00072379014
203	0x3cd87784	0.026424177
204	0x3c152ab8	0.009104423
205	0xbd7c4e2a	-0.06159798
206	0x3c6cd064	0.014453981
207	0xbd6e60f3	-0.058197927
208	0x3d30644f	0.04306441
209	0xbbc313dd	-0.0059532956
210	0x3c14f8fd	0.009092567
211	0xbd1b6798	-0.03794059
212	0xbd5c01e3	-0.053712737
213	0x3d86629c	0.06561777
214	0xbd97962d	-0.07401691
215	0xbc77f748	-0.01513464
216	0xbd75113d	-0.059830893
217	0x3bd06b48	0.006360445
218	0x3b9ca511	0.0047804196
219	0x3c257f8a	0.010101208
220	0xbd650b02	-0.0559187
221	0x3aa5926f	0.0012632142
222	0x3d2d98aa	0.04238192
223	0xbd4ceabb	-0.050028544
224	0xbd965273	-0.07339945
225	0x3d0d2e88	0.034468204
226	0x3c91093c	0.017704599
227	0xbd115cee	-0.035489015
228	0x3cd29fd1	0.025710972
229	0xbd3d1128	-0.04615894
230	0xbc9aaa92	-0.018880162
231	0xbc8bee71	-0.017081471
232	0x3d41da29	0.047327194
233	0x3bc96d4d	0.006147063
234	0x395e0187	0.00021172139
235	0xbcbb12b9	-0.022836076
236	0xbcda78b0	-0.026668876
237	0xbd5f6a50	-0.054544747
238	0x3c51b773	0.012800085
239	0x3d853656	0.065045044
240	0xbd921bfe	-0.07134245
241	0xbc160faf	-0.009159013
242	0x3d6db5da	0.058034755
243	0x3c41b197	0.011822126
244	0xbce0caa5	-0.027440378
245	0xbd422b92	-0.047404833
246	0xbd854dd1	-0.06508983
247	0xbd59cc0a	-0.053173102
248	0xbc78b638	-0.015180163
249	0x3d3fe5de	0.046850078
250	0x3d40359a	0.04692612
251	0xbd863f87	-0.06555086
252	0xbd1b4834	-0.037910655
253	0x3d847d36	0.064691946
254	0xbc8c8d90	-0.017157346
255	0xbd6ca1d9	-0.057771537

conv2.bias f4 [128]
0	0x3d4e7e25	0.05041327
1	0x3c82811e	0.015930708
2	0x3d4a0ef3	0.049330663
3	0x3c019dcf	0.00791116
4	0xbd69beb7	-0.057066645
5	0x3d378f01	0.044814114
6	0xbcad0f38	-0.02112542
7	0xbd898277	-0.06714337
8	0xbc46822c	-0.012115996
9	0xbd70af4a	-0.05876092
10	0xbd90e16b	-0.07074245
11	0xbd3ac9ef	-0.045602735
12	0xbd367469	-0.04454461
13	0x3d3ae62c	0.045629665
14	0x3d5bb33c	0.053637728
15	0xbce52522	-0.027971808
16	0x3d53df8c	0.051726863
17	0xbcf3e93f	-0.029774306
18	0x3cc2cb65	0.023778627
19	0xbc8fb7a8	-0.017543629
20	0x3d46c5ae	0.048528366
21	0x3cf50804	0.029911049
22	0x3d3a4124	0.04547228
23	0x3d8ead95	0.06966702
24	0xba540f34	-0.00080894236
25	0xbc7812bf	-0.015141188
26	0x3c98329a	0.018578816
27	0xbd1a208d	-0.0376287
28	0xbcce46c3	-0.025180226
29	0xbc024907	-0.007951981
30	0x3ca788a2	0.020450894
31	0xbc2f064d	-0.010682655
32	0xbc8cd6e0	-0.017192304
33	0xbd2776f3	-0.040884923
34	0xbd9d6260	-0.07684779
35	0xbd0d54be	-0.034504645
36	0x3c1c4312	0.009537475
37	0xbd439dee	-0.047758035
38	0x3d5941e5	0.053041358
39	0x3cfd4fc1	0.030921819
40	0x3cdd19fb	0.026989928
41	0xbb57ee28	-0.0032948349
42	0xbd87c941	-0.06630183
43	0x3c5cbfba	0.013473446
44	0xbd76bf21	-0.06024087
45	0xbd4b4f72	-0.04963631
46	0x3cfdabf4	0.030965783
47	0xbb867d94	-0.0041043255
48	0x3b1850cd	0.002324152
49	0x3d348540	0.04407239
50	0x3d86b1ba	0.065768674
51	0x3d3794fc	0.044819817
52	0x3d5bbcbd	0.05364679
53	0xbcba224f	-0.022721438
54	0xbd46a428	-0.048496395
55	0xbcab723d	-0.020928496
56	0x3ccea759	0.025226282
57	0xbd3adb42	-0.045619257
58	0x3d93a08e	0.07208358
59	0x3ce54d2e	0.027990904
60	0xbce8a7c6	-0.028400313
61	0x3d4841de	0.04889094
62	0x3d43c21b	0.047792535
63	0x3d39a331	0.045321647
64	0x3d2e2f2c	0.042525455
65	0xbbb93c17	-0.005652915
66	0xbd916dc5	-0.07101015
67	0xbd10dceb	-0.035366934
68	0x3cce1783	0.025157696
69	0xbc824522	-0.015902106
70	0xbce608e6	-0.028080415
71	0xbc4c2125	-0.012459074
72	0xbc1ecd3d	-0.009692487
73	0xbd55ce5d	-0.052198756
74	0x3c266fd7	0.010158501
75	0xbbd15ce1	-0.006389246
76	0xbd46a83b	-0.04850028
77	0x3a9e1d2c	0.0012063137
78	0x3d1293b2	0.035785384
79	0xbd75e123	-0.06002916
80	0x3c0bc48c	0.008530747
81	0xbcd6c86b	-0.026218614
82	0x3c5ecca2	0.013598593
83	0x3d5784cd	0.052616883
84	0xbd084270	-0.033266485
85	0xbd8c88e6	-0.06862049
86	0xbd050f70	-0.032485425
87	0x3c374a59	0.011187159
88	0xbcc275b9	-0.023737775
89	0xbd13f935	-0.036126334
90	0x3c86f991	0.016476424
91	0xbc1b3163	-0.009472224
92	0x3d32c9ea	0.04364959
93	0xbda109d7	-0.07863205
94	0xbc59ae6e	-0.013286216
95	0xbce2d407	-0.027688993
96	0x3cdf2baf	0.02724251
97	0x3d7cce14	0.06171997
98	0xba3c3f40	-0.0007181056
99	0xbd854831	-0.0650791
100	0xbd8045f0	-0.062633395
101	0x3cee0e33	0.029059505
102	0xbd990607	-0.07471853
103	0xbd18a67b	-0.037268143
104	0xbd2a6c03	-0.041606914
105	0xbd8b209e	-0.067933306
106	0x3bad63da	0.0052914442
107	0x3d375c1b	0.044765573
108	0xbcf19bd2	-0.029493246
109	0x3d902e94	0.07040134
110	0xbd49cb98	-0.049266428
111	0x3d6a267c	0.057165608
112	0xbd917236	-0.07101862
113	0xba810d8e	-0.0009845959
114	0xbc4fb95d	-0.012678471
115	0x3c6cd263	0.014454457
116	0x3d15e8bb	0.036598902
117	0x3d531ca8	0.051541
118	0xbd547881	-0.051872734
119	0x3d8d6cd4	0.06905523
120	0xbcbfaaec	-0.023396932
121	0xbd8475d5	-0.06467787
122	0x3d2e8b76	0.04261347
123	0xbd883c28	-0.06652099
124	0xbd7ea072	-0.06216473
125	0xbbfd3cb2	-0.0077281827
126	0xbd8e67b2	-0.06953372
127	0x3d6a18d5	0.057152588

fc1.weight f4 [64, 128]
0	0xbd0b8c6a	-0.034069456
1	0xbc99db70	-0.018781394
2	0xbdaf4d5c	-0.08559677
3	0xbdb0a042	-0.08624317
4	0x3d84c643	0.06483128
5	0x3c019040	0.007907927
6	0x3d71d26a	0.059038557
7	0xbd99b726	-0.07505636
8	0x3daa094f	0.08302557
9	0x3c8b6990	0.01701811
10	0xbd2f9650	-0.04286796
11	0x3d68e1ea	0.056856073
12	0x3d9ac59f	0.075572245
13	0xbd7fc9b0	-0.062448204
14	0xba7ef000	-0.0009725094
15	0x3da107d9	0.07862825
16	0xbdacd763	-0.08439519
17	0xbd83ce66	-0.06435852
18	0xbcb2669c	-0.021777444
19	0x3c8489dc	0.016179018
20	0xbdb1d002	-0.086822525
21	0x3b64cde0	0.003491275
22	0xbad7d1c0	-0.0016465709
23	0x3d22a946	0.039712213
24	0x3d8571bd	0.065158345
25	0xbda621dd	-0.08111928
26	0x3da188cb	0.07887419
27	0xbd0ceba6	-0.03440442
28	0xbd9fa034	-0.07794228
29	0x3d8ca389	0.06867129
30	0xbd3983ec	-0.045291826
31	0xbda7756b	-0.081766926
32	0xbcab7d04	-0.020933636
33	0xbd4a79d2	-0.049432583
34	0x3c532818	0.012887977
35	0xbc8c1f94	-0.017104901
36	0xbc667ec8	-0.014068313
37	0x3d919461	0.07108379
38	0x3d9f9cd9	0.07793588
39	0xbd85ea4a	-0.06538828
40	0xbcd1e3d0	-0.025621325
41	0xbd0a493c	-0.033761248
42	0xbb887080	-0.0041638017
43	0xbd5c551a	-0.053792097
44	0x3d56081e	0.052253835
45	0x3d80ae21	0.062832125
46	0xbc9a4c34	-0.018835165
47	0xbd5efbe4	-0.05443944
48	0xbafced80	-0.0019296855
49	0xbdb12847	-0.086502604
50	0xbc4431e0	-0.011974782
51	0xbcb771fc	-0.02239322
52	0xbd95f88d	-0.07322798
53	0x3c89c94c	0.016819619
54	0xbd029438	-0.031879634
55	0xbcac408c	-0.021026872
56	0x3d071f80	0.032989025
57	0x3d6a5672	0.057211347
58	0xbcac82a8	-0.021058396
59	0x3d0b2c1e	0.03397762
60	0x3d7a348e	0.061085276
61	0xbc9fa37c	-0.019487135
62	0x3ced2cc4	0.02895201
63	0x3c2afb78	0.010435931
64	0xbd8997a4	-0.06718376
65	0x3ceaddac	0.028670155
66	0x3bc2de20	0.0059468895
67	0x3d911d7b	0.07085701
68	0x3ca1a294	0.019730844
69	0x3d049eac	0.032377884
70	0xbda052a6	-0.07828264
71	0xbda369e2	-0.0797918
72	0x3c3f1e90	0.0116650015
73	0xbdadc65d	-0.084851004
74	0x3ce4ce34	0.027930357
75	0xbcc24974	-0.023716666
76	0xbcb6931c	-0.022286944
77	0xbc3a1f18	-0.011359952
78	0xbc836380	-0.016038656
79	0x3d7c94fa	0.061665513
80	0x3cdbf82c	0.026851736
81	0xbd2d0f7d	-0.0422511
82	0x3d3f88aa	0.046761192
83	0x3cf81dd0	0.030287653
84	0xbd01929f	-0.03163397
85	0xbc720f88	-0.014774211
86	0x3d0585c4	0.032598272
87	0xbd74c47d	-0.0597577
88	0xbc4b3378	-0.012402408
89	0x3d283c0e	0.041072898
90	0x3c071fd8	0.008247338
91	0xbd31da95	-0.043421347
92	0xbd5c1e30	-0.053739727
93	0x3dad00fd	0.08447454
94	0xbaf75900	-0.0018871129
95	0x3d1237d2	0.035697766
96	0x3cfc364c	0.03078761
97	0xbd0d117d	-0.034440506
98	0x3d151bfa	0.036403634
99	0xbdb2844e	-0.08716641
100	0xbd217fb7	-0.03942844
101	0xbc7b9ad8	-0.015356742
102	0x3d928cab	0.071557365
103	0x3cfd3b8c	0.030912183
104	0xbd88061e	-0.06641792
105	0xbda2bae3	-0.07945802
106	0xbd3a18c1	-0.045433763
107	0xbd4b8392	-0.049686022
108	0x3cf84ab8	0.030309066
109	0xbcdee422	-0.027208392
110	0x3d24190a	0.04006294
111	0x3c23aaf0	0.009989485
112	0xbd5831b0	-0.05278176
113	0xbb1fe260	-0.0024396405
114	0x3d932a23	0.07185771
115	0xbc9654cc	-0.018350981
116	0xbc044a90	-0.008074418
117	0x3d8542f9	0.06506915
118	0xbd9d91db	-0.07693835
119	0x3d6b95c6	0.057515882
120	0xbcb52dc8	-0.022116557
121	0x3d5ef632	0.05443401
122	0x3da96219	0.08270664
123	0xbd81d7a4	-0.06339958
124	0xbd32c8cd	-0.04364853
125	0x3d69674e	0.056983285
126	0x3d8f55f9	0.0699882
127	0x3d12f466	0.035877608
128	0xbd88cae4	-0.06679323
129	0xbd6656fe	-0.056235306
130	0x3d9b6617	0.075878315
131	0xbd163e5b	-0.03668056
132	0x3d8a3201	0.06747819
133	0xbd94055b	-0.07227584
134	0xbd5ef81a	-0.054435827
135	0x3b838f70	0.004014902
136	0xbc81b618	-0.0158339
137	0xbb0ac4c0	-0.00211744
138	0x3c0a1348	0.008427449
139	0x3d039e20	0.03213322
140	0xbd814284	-0.06311515
141	0xbda9559a	-0.0826828
142	0xbd653e8f	-0.055967864
143	0x3d74c63a	0.059759356
144	0xbda943de	-0.08264898
145	0x3bf10880	0.0073557496
146	0x3d850a41	0.064960964
147	0xbc3432f0	-0.010998473
148	0x3d20fb36	0.039302073
149	0xbcc8330c	-0.024438404
150	0x3d3252b2	0.043535896
151	0xbd1a3e25	-0.037656922
152	0x3ccd4374	0.025056578
153	0xbd202645	-0.039098997
154	0x3daff38b	0.08591374
155	0x3caf0a7c	0.021367304
156	0x3d434172	0.047669835
157	0x3cac79cc	0.021054171
158	0xbd43fdf4	-0.04784961
159	0x3da6bfef	0.08142077
160	0x3d3018fa	0.04299257
161	0xbc35c5d8	-0.011094533
162	0xbd18a9b1	-0.037271205
163	0x3c9a8c74	0.018865801
164	0x3c9c7f98	0.01910381
165	0xbd3005c8	-0.042974263
166	0x3d3b3a22	0.045709737
167	0xbc7159a0	-0.014730841
168	0x3d02bb4a	0.031916894
169	0xbd18348e	-0.037159495
170	0x3c568888	0.013094075
171	0xbd989360	-0.074499846
172	0xbd89d690	-0.06730378
173	0xbd16ae11	-0.036787096
174	0x3d300fd2	0.042983837
175	0xbdb12581	-0.086497314
176	0xbb8e6360	-0.0043453425
177	0xbda40c46	-0.080101535
178	0x3be53410	0.0069947317
179	0x3cfad900	0.030621052
180	0xbd21764a	-0.03941945
181	0xbcdec424	-0.027193137
182	0xbd9a1793	-0.07524028
183	0xbd6449fd	-0.055734623
184	0xbda2a0b9	-0.07940812
185	0x3d670bee	0.05640786
186	0xbbeea360	-0.0072826594
187	0xbd789aea	-0.060694613
188	0xbd57bb3a	-0.052668788
189	0x3c4ff4b0	0.012692615
190	0x3b1a6340	0.0023557693
191	0x3db0ff4b	0.08642443
192	0xbd2f5115	-0.042801935
193	0xbcd4b048	-0.025962964
194	0x3c735008	0.014850624
195	0x3d8dd621	0.069256075
196	0x3bb20610	0.0054328516
197	0xbccc1588	-0.02491261
198	0x3bcc8d40	0.0062424242
199	0xbc35e848	-0.011102743
200	0xbcb6b47c	-0.022302859
201	0x3d366e4e	0.04453879
202	0x3d2d3a4a	0.042291917
203	0xba9a0280	-0.0011750013
204	0x3cb2f660	0.021845996
205	0x3d988a71	0.074482806
206	0xbc3daa68	-0.011576273
207	0xbcd4e9e4	-0.025990434
208	0x3d251e6a	0.04031221
209	0xbc2335e0	-0.009961575
210	0xbd8bd10c	-0.06826982
211	0xbc3639e8	-0.011122204
212	0x3daa57d7	0.08317535
213	0xbc140b58	-0.009035908
214	0xbdab8414	-0.08374801
215	0xbdab4695	-0.08363072
216	0x3cfcb368	0.030847266
217	0x3d44e5f6	0.04807087
218	0xbbee1170	-0.0072652623
219	0x3d038fb2	0.03211946
220	0x3dab7501	0.08371926
221	0x3b98ac60	0.0046592206
222	0xbcc0441c	-0.023469977
223	0xbd2cf3d0	-0.042224705
224	0x3c6469f0	0.013941273
225	0x3d0a04ca	0.033695973
226	0xbd0641e3	-0.03277768
227	0x3d8037a7	0.06260615
228	0x3d35f202	0.04442025
229	0x3ccdc064	0.025116153
230	0xbd371183	-0.044694435
231	0x3d94aeb3	0.07259884
232	0xbd8bc7f9	-0.06825251
233	0xbb86fb40	-0.004119307
234	0xbdabe7f3	-0.0839385
235	0xbcb505f8	-0.022097573
236	0x3c80bfe0	0.015716493
237	0x3d98c4d9	0.07459421
238	0x3d2925ee	0.04129594
239	0xbd6033db	-0.054736953
240	0xbc89e664	-0.016833492
241	0x3d2f340a	0.042774238
242	0xbd0ded39	-0.03465006
243	0x3d30b0be	0.043137304
244	0x3d964d1d	0.07338927
245	0xbd5fd73f	-0.054648634
246	0xbdaaaca1	-0.083337076
247	0x3c108390	0.008820429
248	0x3d343a42	0.04400087
249	0x3cc83e84	0.024443872
250	0x3ad6a3c0	0.0016375706
251	0xbcdc312e	-0.02687892
252	0x3d92a9bb	0.0716128
253	0xbd477b76	-0.048701726
254	0xbc687720	-0.014188558
255	0x3c71ca38	0.014757685

fc1.bias f4 [64]
0	0xbd82731a	-0.0636961
1	0xbcfb7b66	-0.03069849
2	0x3da7384a	0.08165033
3	0xbd7f54ca	-0.06233672
4	0xbda91279	-0.082554765
5	0xbdbb4e0f	-0.09145748
6	0xbd3267ea	-0.04355613
7	0x3cca2593	0.02467612
8	0x3b82bfd0	0.003990151
9	0x3d854012	0.06506361
10	0xbc8f20e3	-0.017471736
11	0xbd975180	-0.07388592
12	0xbd8ede8e	-0.06976043
13	0x3d6b2bbe	0.057414763
14	0xbd067acd	-0.032831956
15	0x3d2e2ef7	0.042525258
16	0xbd7fc3b2	-0.06244249
17	0x3da45931	0.080248244
18	0xbd9e3460	-0.077248335
19	0x3c024e96	0.007953307
20	0xbcb6bb62	-0.022306148
21	0x3ba5d120	0.00506033
22	0xbd6f0829	-0.05835739
23	0x3d71f2b9	0.05906937
24	0xbd78d3ed	-0.060748983
25	0x3d880b6a	0.06642802
26	0x3c3d1290	0.01154007
27	0x3d541328	0.05177608
28	0x3d7e84ca	0.062138356
29	0x3d1f5f5e	0.03890931
30	0x3a760580	0.0009384975
31	0x3d2bd27a	0.041948773
32	0xbcfee578	-0.031115279
33	0xbd94be40	-0.0726285
34	0xbceb8b07	-0.028752817
35	0xbd83458f	-0.064097516
36	0xbd7e48ff	-0.062081333
37	0xbd84b74b	-0.06480273
38	0x3c2eb1a2	0.010662468
39	0xba246da8	-0.00062724436
40	0xbd5ce39f	-0.053928014
41	0x3bd100d0	0.0063782707
42	0xbcb7a296	-0.022416394
43	0xbda8b14e	-0.08236943
44	0x3cc9c54a	0.024630208
45	0xbb2c169f	-0.00262586
46	0xbd9a77e0	-0.075423956
47	0xbd61adeb	-0.0550975
48	0xbbcfe8a0	-0.0063448697
49	0x3d5c15f0	0.05373186
50	0xbd4c5436	-0.049884997
51	0xbd796bcf	-0.06089383
52	0xbd9295be	-0.07157467
53	0xbd2ff562	-0.042958625
54	0x3c7bdb6b	0.015372138
55	0xbcaa90da	-0.020821024
56	0x3dae6ea7	0.08517199
57	0x3d3cba1d	0.04607593
58	0xbc69961c	-0.01425698
59	0xbd125f7d	-0.035735596
60	0xbd4c3fb2	-0.049865432
61	0x3d2753d3	0.040851425
62	0xbd9a2019	-0.075256534
63	0x3cbfb708	0.023402706

fc2.weight f4 [1, 64]
0	0xbdd21b14	-0.10259071
1	0x3d07b268	0.033129126
2	0xbddc3666	-0.10752563
3	0xbd1fea6d	-0.039041925
4	0xbd1a5fc4	-0.037688985
5	0x3c9013a4	0.01758749
6	0xbd43c570	-0.047795713
7	0x3dc930a3	0.0982373
8	0xbbb6a3c0	-0.0055737197
9	0xbddf527c	-0.109044045
10	0xbd8f1354	-0.069861084
11	0xbdb596c2	-0.088666454
12	0x3df9187e	0.12162875
13	0xbd8e5626	-0.06950025
14	0xbb9191df	-0.004442438
15	0xbd974bae	-0.07387482
16	0x3d456709	0.048193965
17	0x3be5cf3f	0.007013231
18	0xbcd1cd10	-0.025610477
19	0xbd7c9365	-0.061664004
20	0xbced8cc2	-0.028997783
21	0xbd0a1f4c	-0.033721253
22	0xbde56536	-0.11200945
23	0x3d6b142c	0.057392284
24	0xbda6b293	-0.08139529
25	0x3da78f9d	0.08181689
26	0x3d7b8906	0.061409973
27	0xbdbd586b	-0.0924538
28	0xbd782307	-0.06058028
29	0xbb21f6f7	-0.0024713853
30	0x3c0e0a80	0.008669496
31	0x3da661c2	0.081241146
32	0x3db03e60	0.08605647
33	0x3dc0b1b6	0.09408896
34	0x3dd96388	0.10614687
35	0xbca9eee8	-0.020743802
36	0x3cbe74c0	0.02324903
37	0xbd7fe322	-0.06247247
38	0xbcbb4b15	-0.02286295
39	0x3dae56c5	0.08512644
40	0xbd9c0c22	-0.07619502
41	0x3c8b2f20	0.016990244
42	0x3d0a5691	0.033773962
43	0x3d30e509	0.043187175
44	0x3d928284	0.071538
45	0xbd79502c	-0.060867473
46	0xbca5ac50	-0.020223767
47	0xbd7f254e	-0.062291436
48	0xbdd63480	-0.10459232
49	0xbd364be9	-0.044505987
50	0x3bd64440	0.0065388978
51	0x3c876c68	0.016531184
52	0x3c5135ab	0.012769143
53	0xbdbf8349	-0.093512125
54	0xbda81d8f	-0.08208763
55	0xbc97ba5f	-0.018521486
56	0x3df435f6	0.11924355
57	0x3cb4f428	0.022089079
58	0x3d19a5d7	0.037511673
59	0xbcdff16f	-0.027336804
60	0x3d94f54e	0.07273351
61	0xbd2b984d	-0.041893292
62	0xbdae2634	-0.085033804
63	0x3db32c62	0.087487
